02_code_organisation/final_exercise/cookiecutter project/src/models/model.pth (torch, 177875 bytes, 10 tensors)

feature_extractor.0.weight f4 [6, 1, 4, 4]
0	0x3eb8d3b2	0.3609901
1	0x3e33b5b8	0.17549789
2	0xbd2c7279	-0.042101357
3	0xbe6c226f	-0.2306001
4	0xbe0f330b	-0.13984315
5	0xbe61efa0	-0.22064066
6	0xbf1112e0	-0.56669426
7	0xbf2192a6	-0.6311439
8	0x3ea87c56	0.3290736
9	0x3c03917b	0.008030291
10	0xbed5ae18	-0.41734385
11	0xbea6a538	-0.32547927
12	0x3ebdd8df	0.37079522
13	0x3dc4465a	0.09583731
14	0x3eb5d7a6	0.3551609
15	0x3efc4954	0.49274695
16	0xbf0035fa	-0.5008236
17	0xbddd4a63	-0.10805204
18	0xbeeee46d	-0.4665865
19	0xbea12750	-0.31475306
20	0xbe22a326	-0.15882549
21	0x3e851e03	0.2599946
22	0x3eb60df7	0.3555753
23	0xbeb635f6	-0.35588044
24	0xbc793104	-0.01520944
25	0x3e55e8a2	0.20889524
26	0x3ee877c4	0.45403874
27	0xbd089fac	-0.0333554
28	0x3e7201e8	0.2363354
29	0x3f2c40f2	0.672866
30	0x3f1b78d1	0.60731226
31	0x3e43ca38	0.19120109
32	0x3e09c399	0.13453521
33	0x3e8d0876	0.27545518
34	0x3f002619	0.5005813
35	0x3eba0d4c	0.3633827
36	0xbcb4ed44	-0.022085793
37	0x3e6f4696	0.2336677
38	0x3ec320c0	0.38110924
39	0xbe15103d	-0.14556976
40	0xbe8265af	-0.25468203
41	0x3e75e1fa	0.24011984
42	0xbdcbef9b	-0.099578105
43	0xbe89ac8e	-0.2688946
44	0xbe847a0d	-0.25874367
45	0xbd355e60	-0.044279456
46	0xbeeb1402	-0.45913702
47	0xbe889755	-0.26677957
48	0x3bcf6d99	0.0063302037
49	0xbd22e42d	-0.039768387
50	0xbe1a979b	-0.15096895
51	0x3b8d2325	0.004307168
52	0x3f094fcb	0.5363738
53	0x3e3ae8a1	0.18252803
54	0x3db97543	0.09055569
55	0xbee6084b	-0.44928202
56	0x3f19d395	0.60088474
57	0xbd308f40	-0.043105364
58	0xbf176f6e	-0.59154403
59	0xbf2aaa61	-0.6666623
60	0x3eb1f555	0.34757486
61	0xbe130b1c	-0.14359707
62	0xbefd71e8	-0.49500966
63	0xbe060be1	-0.13090469
64	0x3e425a82	0.18979838
65	0x3ef3462b	0.4751447
66	0x3ec3fe4b	0.38279948
67	0xbe5cef65	-0.21575697
68	0x3e85369c	0.26018226
69	0x3f294d98	0.66134024
70	0x3e932e1f	0.28746125
71	0xbdbe8c7b	-0.09304138
72	0x3e1c7247	0.15277968
73	0x3d088679	0.033331368
74	0x3d8f200d	0.06988535
75	0xbec4aa80	-0.3841133
76	0xbe39eda0	-0.18157053
77	0xbe4cceda	-0.20000783
78	0x3c70b2e3	0.014691087
79	0xbed93202	-0.42420965
80	0x3ed7c646	0.42143458
81	0xbea2a07a	-0.3176306
82	0xbf01d2ca	-0.50712264
83	0xbe1c7171	-0.1527765
84	0xbe0d5ebc	-0.1380567
85	0xbee316a1	-0.44353202
86	0xbf040cae	-0.5158185
87	0x3e129c8a	0.14317527
88	0xbd10eabd	-0.035380114
89	0xbe478e49	-0.19487871
90	0xbead32f9	-0.33827952
91	0x3ea08779	0.31353357
92	0x3edb5d5b	0.42844662
93	0x3f0a316a	0.5398165
94	0x3ea8fa75	0.33003584
95	0xbca7396e	-0.020413127

feature_extractor.0.bias f4 [6]
0	0xbe11942a	-0.14216676
1	0x3ec4cf06	0.38439196
2	0x3eb4b1bf	0.3529186
3	0x3ee77bdf	0.45211694
4	0x3f126e01	0.571991
5	0xbe00e89c	-0.12588733

feature_extractor.3.weight f4 [16, 6, 4, 4]
0	0xbd9de1bd	-0.07709072
1	0xbeaeb16a	-0.3411973
2	0xbe97c05a	-0.2963894
3	0xbe30ca40	-0.17264652
4	0x3e7ef1e3	0.2489696
5	0x3e746832	0.23867872
6	0x3d1c0bbd	0.038097132
7	0xbd31cf31	-0.043410484
8	0x3d9d75f7	0.07688516
9	0x3e5de5ad	0.21669646
10	0xbcc8655e	-0.024462398
11	0xbe45b9c9	-0.19309153
12	0x3d8b1868	0.067917645
13	0x3f1f6685	0.6226581
14	0x3e0a00ad	0.1347682
15	0xbe1f4067	-0.15551911
16	0xbdfa25bb	-0.12214228
17	0xbadf9c76	-0.0017060179
18	0xbb6feeac	-0.0036610765
19	0xbc1e4257	-0.009659371
20	0x3dfc8c22	0.12331416
21	0x3d0d137e	0.034442417
22	0xbe56eeb6	-0.20989498
23	0xbde1954a	-0.11014803
24	0x3de160b4	0.11004773
25	0xbe98e89f	-0.29864976
26	0xbf0d2b43	-0.5514414
27	0x3d82b42a	0.0638202
28	0x3e275b2d	0.16343375
29	0xbedb48d3	-0.42828998
30	0xbf147b85	-0.58000976
31	0xbd2fa09d	-0.042877782
32	0x3e13b141	0.14423086
33	0x3e2c29bd	0.16812797
34	0x3e83afad	0.25719967
35	0x3e7ce937	0.2469834
36	0xbdad3b12	-0.084585324
37	0xbd992d8c	-0.074793905
38	0xbd896ee8	-0.06710607
39	0x3e3bd440	0.18342686
40	0xbd8a8f74	-0.06765643
41	0x3da3060f	0.0796014
42	0xbe3474f5	-0.1762274
43	0x3dc3b43f	0.095558636
44	0x3e1f558d	0.15559979
45	0x3db29352	0.08719505
46	0xbe7824e0	-0.24232817
47	0x3df6ef93	0.12057414
48	0x3d685f78	0.05673167
49	0xbc112641	-0.008859218
50	0xbe4cb20d	-0.19989796
51	0xbdbb8b58	-0.09157437
52	0xbdd6c256	-0.104862854
53	0x3df18862	0.11793591
54	0x3cf34730	0.02969703
55	0xbe613126	-0.21991405
56	0xbdddb267	-0.10825043
57	0x3e08cb9c	0.13358921
58	0xbda9ce3c	-0.08291289
59	0xbdfc8259	-0.12329549
60	0xbe937b47	-0.2880499
61	0x3ed13592	0.40861183
62	0x3d9ad671	0.07560433
63	0xbe28a3f2	-0.1646879
64	0x3e82e183	0.25562677
65	0x3dd39fe3	0.1033323
66	0x3e49df88	0.19714177
67	0x3ea510aa	0.32239276
68	0x3bf265f3	0.007397407
69	0x3d48c8b6	0.049019538
70	0xbda1c231	-0.07898367
71	0xbce78819	-0.028263139
72	0xbca02e23	-0.01955325
73	0xbd97bd26	-0.07409124
74	0xbe6bca83	-0.23026471
75	0xbe04beea	-0.12963453
76	0x3d3fe938	0.046853274
77	0xbcc6e08a	-0.02427699
78	0xbeb2e571	-0.34940675
79	0xbdfd133a	-0.12357183
80	0xbbd85a6b	-0.0066025755
81	0xbdc375ef	-0.095439784
82	0xbea11b22	-0.31466013
83	0xbea16d8d	-0.31528893
84	0x3d29dc4f	0.04146987
85	0x3e299acd	0.16562958
86	0x3e048a72	0.12943438
87	0xbdbb2280	-0.0913744
88	0xbd03a5ff	-0.032140728
89	0x3e41057a	0.18849745
90	0x3e952b3b	0.29134545
91	0xbd1454d1	-0.0362137
92	0xbd58dec5	-0.052946825
93	0x3e51f63f	0.20504092
94	0x3e630ecb	0.22173612
95	0xbda2c38a	-0.07947452
96	0xbd63d92e	-0.05562704
97	0xbe823a92	-0.2543531
98	0xbea55bf7	-0.32296726
99	0xbeb4e3c7	-0.3533003
100	0x3d34fd52	0.044186898
101	0x3d9057e3	0.07048013
102	0x3dc37b7a	0.09545036
103	0x3e99afd2	0.30016953
104	0xbc98f1a8	-0.018669918
105	0x3dfe05c6	0.12403445
106	0xbdddfe82	-0.10839559
107	0xbdd31c0a	-0.103080824
108	0xbf0800a8	-0.53126
109	0xbf1b7f49	-0.60741097
110	0xbe86b440	-0.26309395
111	0xbec24110	-0.37940264
112	0x3d2a7ee4	0.04162492
113	0xbd728435	-0.059208114
114	0xbcc94a33	-0.024571514
115	0xbe041787	-0.128996
116	0x3d2b557b	0.041829567
117	0xbe8442ac	-0.25832117
118	0xbe17ea09	-0.14835371
119	0x3c1de411	0.009636895
120	0x3ddc1217	0.10745638
121	0x3edeb8cf	0.43500373
122	0x3eb858a7	0.36005136
123	0x3ec35916	0.38153905
124	0xbf08210d	-0.5317543
125	0xbe6917b4	-0.22762948
126	0x3cd88df0	0.026434869
127	0x3eb114c3	0.34586152
128	0x3d6294e4	0.055317774
129	0xbcf6fb41	-0.030149104
130	0x3d961ffc	0.07330319
131	0x3e634a75	0.22196372
132	0xbc8a4cc8	-0.016882315
133	0x3e2fa5ca	0.17153087
134	0x3e35e064	0.1776138
135	0xbcff3055	-0.031150976
136	0xbdd8562f	-0.10563313
137	0xbe2c087e	-0.16800115
138	0xbe3446ab	-0.17605083
139	0xbe54eb63	-0.20792918
140	0x3ec3eadb	0.38265118
141	0x3ecb6051	0.3972192
142	0x3e71ea1a	0.23624459
143	0x3e13e956	0.1444448
144	0x3dad5a52	0.08464493
145	0xbda4ed39	-0.08053059
146	0x3e17a2c9	0.14808191
147	0x3e048ae5	0.12943609
148	0x3db1b3d2	0.08676876
149	0x3d454e20	0.04817021
150	0x3e75d3d6	0.2400659
151	0x3e5d81e3	0.21631579
152	0xbe022374	-0.12708837
153	0xbd8b2872	-0.06794824
154	0xbd8e9c98	-0.06963462
155	0xbe086f6d	-0.13323756
156	0xbda31cb6	-0.079644606
157	0xbdbf5ce6	-0.09343891
158	0xbd2d8b84	-0.04236938
159	0xbf016d7a	-0.5055767
160	0x3cb4fc9b	0.022093108
161	0xbd1d72b0	-0.038439453
162	0x3d8bfd45	0.06835417
163	0x3e0f6a6a	0.14005437
164	0x3dec5f29	0.11541588
165	0x3e2b1541	0.16707326
166	0x3e25f54d	0.16206856
167	0x3d9e986c	0.07743916
168	0x3db5d5bf	0.088786595
169	0x3d35771f	0.044303056
170	0xbe7ade1a	-0.24498788
171	0xbdd54e7c	-0.1041536
172	0x3e4ef49f	0.20210503
173	0x3eb339be	0.3500499
174	0x3ee0bbc2	0.43893248
175	0x3e9bd5e5	0.30436626
176	0xbdba14ff	-0.09086036
177	0xbe173def	-0.1476972
178	0xbdb9e1b0	-0.090762496
179	0xbe4ed4dd	-0.20198388
180	0xbde279bc	-0.11058375
181	0xbe262921	-0.16226627
182	0xbda1dac0	-0.079030514
183	0xbdc115e2	-0.09428002
184	0xbe54ea2e	-0.20792457
185	0xbcf5e0f7	-0.030014498
186	0x3d247094	0.040146425
187	0xbe13a7fb	-0.14419548
188	0xbe1ab15e	-0.15106723
189	0xbede3af1	-0.43404344
190	0xbeb55d92	-0.3542295
191	0xbf056837	-0.52112144
192	0xbe8e8904	-0.2783891
193	0xbf0aa987	-0.5416493
194	0xbf1a8b27	-0.6036858
195	0xbeb623da	-0.35574228
196	0x3ea78606	0.3271944
197	0x3ea8f66d	0.33000508
198	0x3bede934	0.007260466
199	0x3e8911b6	0.26771325
200	0x3e66f438	0.225541
201	0x3efb4b62	0.4908095
202	0x3e5c20b4	0.2149685
203	0x3e980356	0.29690045
204	0x3e6211d2	0.2207711
205	0x3e4dc980	0.20096397
206	0x3ce962c4	0.028489478
207	0x3e5b6b8c	0.21427745
208	0x3cc85b43	0.02445758
209	0xbe00e62c	-0.12587804
210	0xbd48f29c	-0.049059495
211	0xbd77cbc3	-0.060497057
212	0x3e0bdadf	0.13657711
213	0xbe867916	-0.26264256
214	0xbeb26dfa	-0.3484953
215	0xbe9cec96	-0.3064925
216	0x3e9bd7f6	0.30438203
217	0x3e2b86fb	0.1675071
218	0x3e85aa9c	0.26106727
219	0x3e2c31da	0.16815892
220	0x3f236c6f	0.6383733
221	0x3e90f7cd	0.28314057
222	0x3d4738b1	0.04863805
223	0xbe1b6995	-0.15176995
224	0x3ea3486e	0.31891197
225	0x3e5fcbd1	0.21855094
226	0x3e0d2999	0.137854
227	0xbd87b566	-0.06626396
228	0x3dc59e53	0.096493386
229	0x3d0e753d	0.034779776
230	0xbcbdd039	-0.023170577
231	0x3df71e8d	0.12066374
232	0x3da3ed25	0.08004216
233	0xbeb5f06e	-0.35534996
234	0xbef45db1	-0.4772773
235	0xbefd29f8	-0.49446082
236	0x3d84c033	0.064819716
237	0xbe01fcbb	-0.12694065
238	0x3cb40178	0.021973357
239	0x3d5676df	0.052359458
240	0xbe21aa77	-0.15787683
241	0xbd9d5100	-0.07681465
242	0xbe48144a	-0.1953899
243	0xbe3001a0	-0.1718812
244	0x3d1d4ad7	0.03840145
245	0x3e89a7a5	0.26885715
246	0x3e151446	0.14558515
247	0x3e70978b	0.23495309
248	0xbc96c1d2	-0.018402968
249	0x3e86ca1f	0.2632608
250	0xbe104ed6	-0.14092574
251	0x3dcc4f78	0.09976095
252	0xbdfab399	-0.12241287
253	0xbdec8919	-0.11549587
254	0x3e396a36	0.18106923
255	0x3eaeb17f	0.34119794

feature_extractor.3.bias f4 [16]
0	0xbe3a9097	-0.18219219
1	0xbc95b5ed	-0.018275226
2	0x3c247c29	0.010039368
3	0x3df8cf53	0.12148919
4	0x3e620ad5	0.22074445
5	0x3e20dec5	0.1570998
6	0xbe1e313c	-0.15448469
7	0xbe84ddf7	-0.25950596
8	0xbce12852	-0.027485047
9	0x3a9fd4e7	0.0012194187
10	0xbe272512	-0.16322735
11	0xbe1b6a38	-0.15177238
12	0x3d986926	0.074419305
13	0xbda6a2f8	-0.081365526
14	0x3d9cb9d7	0.07652634
15	0xbc7a9f40	-0.015296757

feature_extractor.6.weight f4 [120, 16, 4, 4]
0	0xbd665476	-0.056232892
1	0xbc60e287	-0.013725883
2	0xbe55b8f8	-0.20871341
3	0x3d4b681f	0.049659844
4	0xbe010fa1	-0.12603618
5	0xbd2be876	-0.04196974
6	0x3ddd0b86	0.107932135
7	0x3d00bd41	0.031430487
8	0xbea16500	-0.3152237
9	0xbe8549b4	-0.26032794
10	0x3dcdb785	0.10044769
11	0x3d8aa8f9	0.0677051
12	0xbdf894d9	-0.121377654
13	0xbe92b9b4	-0.28657305
14	0xbe62abf4	-0.22135907
15	0x3de9e290	0.114201665
16	0x3c078e90	0.008273736
17	0xbe161d9f	-0.14659737
18	0xbd887b55	-0.06664149
19	0xbc6c9aae	-0.014441175
20	0x3cbf617e	0.023361918
21	0xbecc6922	-0.3992396
22	0xbf0ab1ab	-0.5417735
23	0xbe961abe	-0.29317278
24	0x3ddcdea2	0.10784651
25	0xbdaaa8f9	-0.0833301
26	0xbdc2d578	-0.09513372
27	0xbdf55f9d	-0.119811274
28	0x3e0240a7	0.12719975
29	0x3e930058	0.287112
30	0x3e1b9a04	0.15195471
31	0x3e391bf9	0.18077077
32	0x3e9a17dd	0.3009633
33	0x3eba4dc6	0.3638746
34	0x3d366529	0.044530068
35	0x3e265f85	0.16247375
36	0xbe0f7988	-0.14011204
37	0x3e448011	0.19189478
38	0x3dcaac56	0.09896152
39	0xbd451017	-0.048111048
40	0xbea12dc4	-0.3148023
41	0xbe83e724	-0.25762284
42	0xbe707a59	-0.23484172
43	0xbd42132d	-0.04738157
44	0x3e8092fc	0.2511214
45	0x3e8cd52c	0.27506387
46	0xbc8c55c0	-0.017130733
47	0x3a6d385b	0.000904923
48	0xbbbf3d81	-0.0058361893
49	0xbe37a078	-0.17932308
50	0xbd620c25	-0.055187363
51	0xbe0762af	-0.13221239
52	0x3dc117fd	0.094284035
53	0x3e0788a2	0.13235715
54	0xbdee1834	-0.1162571
55	0xbe504974	-0.2034052
56	0x3e34a2d6	0.17640242
57	0x3ecf0cfa	0.40439588
58	0x3c8fe734	0.0175663
59	0x3cb90c71	0.02258894
60	0x3dbe756f	0.092997424
61	0x3e7e62d1	0.24842383
62	0x3dde004d	0.10839901
63	0xbd26cbab	-0.040721577
64	0xbde9e2be	-0.11420201
65	0xbdcb5ab4	-0.099294096
66	0xbe3afc31	-0.18260266
67	0xbc58a127	-0.013222015
68	0xbe388d11	-0.18022563
69	0xbe1e3b72	-0.15452364
70	0xbdd02275	-0.10162822
71	0xbd68c71b	-0.056830507
72	0xbe23d37e	-0.15998647
73	0xbddbf053	-0.107391976
74	0x3e5a9788	0.21346867
75	0xbd9f1e4a	-0.07769449
76	0xbda1399b	-0.078723155
77	0x3a372cd7	0.00069875777
78	0xbb1183c7	-0.002220379
79	0x3e076b7e	0.13224599
80	0xbe1a7a65	-0.15085752
81	0xbe81beda	-0.2534092
82	0xbe7d1b64	-0.2471748
83	0xbddcbf7e	-0.10778712
84	0xb9d740ea	-0.0004105636
85	0xbdb9da53	-0.09074845
86	0xbe61c18d	-0.2204649
87	0xba8074eb	-0.0009800469
88	0x3e877ab6	0.2646081
89	0x3e5cf85f	0.21579121
90	0xbce71d36	-0.028212171
91	0x3ce39e0c	0.027785324
92	0xbe3ee34a	-0.18641391
93	0xbd3722fd	-0.0447111
94	0x3e454f20	0.19268465
95	0xbe8d81c7	-0.27638075
96	0x3da45b42	0.080252185
97	0x3d8e62c2	0.0695243
98	0x3dae73f9	0.08518214
99	0xbd79d648	-0.06099537
100	0x3e7de74f	0.24795268
101	0x3e8e8d33	0.278421
102	0x3d9b7cb7	0.07592147
103	0xbdb56cc2	-0.088586345
104	0x3e21b51f	0.15791748
105	0x3bb5b138	0.0055448078
106	0xbd57e8fe	-0.052712433
107	0x3c68047d	0.014161226
108	0xbdff55c4	-0.1246753
109	0xbda7cb80	-0.081931114
110	0x3d47619b	0.04867707
111	0x3da5606d	0.080750324
112	0x3e98fdf5	0.29881254
113	0x3e724608	0.23659527
114	0x3e1d0020	0.15332079
115	0x3e24bfd2	0.16088799
116	0xbade27d1	-0.0016949122
117	0x3d8d4acc	0.06899032
118	0x3e419cf1	0.18907525
119	0x3d3e701e	0.046493642
120	0xbe2b9624	-0.16756493
121	0xbe5d40d4	-0.21606761
122	0xbdfbc7de	-0.12293981
123	0x3dfd4d5b	0.1236827
124	0xbe5b957c	-0.21443743
125	0xbe2ec7fa	-0.17068473
126	0xbce842a5	-0.028352091
127	0x3d78c6da	0.060736515
128	0xbdd0b311	-0.10190404
129	0xbd74de24	-0.059782162
130	0xbd1e3a2d	-0.0386297
131	0xbe344296	-0.17603526
132	0x3dab155a	0.08353682
133	0x3d645bde	0.055751674
134	0x3d367f17	0.044554796
135	0x3b5b0c16	0.0033423952
136	0xbe90bbff	-0.2826843
137	0x3d535a09	0.051599536
138	0x3e33cd3e	0.17558762
139	0x3e2eb8d8	0.170627
140	0xbe16e77b	-0.1473674
141	0xbe12cc33	-0.14335708
142	0x3d9a970a	0.0754834
143	0x3d6724c5	0.05643155
144	0x3e16ef32	0.14739683
145	0xbd9b3042	-0.07577564
146	0x3e056088	0.13025105
147	0xbd15ded4	-0.03658946
148	0x3e881fa1	0.2658663
149	0x3e53603f	0.20642184
150	0xbe51158b	-0.20418374
151	0xbe7fac33	-0.24968033
152	0x3e8d4810	0.27594042
153	0x3e954c7a	0.2915991
154	0x3c14bf64	0.009078834
155	0xbc94a72d	-0.018146122
156	0x3e36a0ac	0.17834729
157	0xbd8d6fc1	-0.06906081
158	0xbd6aae3e	-0.057295077
159	0x3b966e8d	0.0045908154
160	0x3dd442ab	0.103642784
161	0xbe28b2c1	-0.16474439
162	0xbe09f7c1	-0.13473417
163	0xbe101ad5	-0.14072736
164	0x3e48a37e	0.19593617
165	0xbec24123	-0.3794032
166	0xbebee38d	-0.37282982
167	0x3d036dd1	0.03208715
168	0x3ce5f65a	0.028071571
169	0x3e444f7c	0.19170946
170	0x3d54b6ce	0.05193215
171	0xbe1281e7	-0.14307366
172	0x3eb1ab05	0.3470079
173	0x3e2acab5	0.16678889
174	0x3e7deb22	0.24796727
175	0x3dbc4d5e	0.09194444
176	0x3d04e3b5	0.03244372
177	0xbda8740b	-0.082252584
178	0x3e3453ab	0.17610042
179	0xbb44641a	-0.0029966892
180	0x3e52e975	0.2059687
181	0xbe0eaee4	-0.13933903
182	0xbe603a05	-0.21897133
183	0xbe5ec42b	-0.2175452
184	0x3de1aeca	0.110196665
185	0xbe2e7ae4	-0.17039067
186	0xbdd56d89	-0.10421283
187	0xbcbfd7ae	-0.023418274
188	0x3d0597d4	0.032615498
189	0xbc6271e7	-0.013821102
190	0xbc19c8c3	-0.009386244
191	0x3cf93683	0.030421501
192	0xbc5c608b	-0.013450752
193	0xbe534775	-0.20632727
194	0xbd4d3815	-0.050102312
195	0x3d95761f	0.072979204
196	0xbe9d86cd	-0.30766907
197	0xbd0dce75	-0.03462072
198	0x3d360131	0.04443473
199	0xbdd36a04	-0.10322955
200	0xbca03660	-0.019557178
201	0xbe8c925a	-0.27455407
202	0xbe29da48	-0.16587174
203	0xbe1fc863	-0.15603785
204	0xbd9dce39	-0.077053495
205	0xbdbb4e92	-0.091458455
206	0x3ce0b06a	0.02742787
207	0xbdfa6368	-0.122259915
208	0xbd0f6c60	-0.035015464
209	0xbe0c7e5c	-0.13720077
210	0xbde2cc87	-0.11074167
211	0x3e2084c0	0.1567564
212	0xbe8231d5	-0.25428644
213	0xbe9330a5	-0.2874805
214	0xbc1e4817	-0.009660742
215	0xbe290b32	-0.16508177
216	0x3e6755dc	0.22591347
217	0xbda08a65	-0.07838897
218	0xbc7b0115	-0.015320082
219	0xbd24dca7	-0.040249493
220	0xbb668001	-0.003517151
221	0x3df1fd8f	0.118159406
222	0x3eb3f933	0.3515106
223	0xbe135f68	-0.14391863
224	0xbcff3526	-0.031153273
225	0x3c14c353	0.009079772
226	0x3afbb10f	0.0019202548
227	0xbd593ab3	-0.053034496
228	0x3e620e30	0.22075725
229	0x3d3d14fd	0.046162594
230	0xbe483cd1	-0.1955445
231	0x3d422a8f	0.04740387
232	0x3d1e2af2	0.038615175
233	0x3e92984c	0.28631818
234	0x3e07a18f	0.13245223
235	0xbe1b2d8f	-0.15154098
236	0x3dff871a	0.124769405
237	0x3e5a43ef	0.21314977
238	0x3cd15322	0.025552336
239	0xbc5c4b35	-0.013445665
240	0xbb1cc04b	-0.0023918326
241	0x3e617a04	0.22019202
242	0xbe1cbebf	-0.15307139
243	0xbda0d6d7	-0.078534774
244	0x3c89616f	0.016770093
245	0x3e15b427	0.14619504
246	0x3caa3df8	0.020781502
247	0x3e2faf11	0.17156626
248	0x3d0c90c0	0.03431773
249	0x3ed55e8c	0.41673696
250	0x3c08cbf3	0.0083494065
251	0xbcb8f9b9	-0.022580015
252	0x3dd325b3	0.10309925
253	0x3d7efbac	0.06225173
254	0xbe10daff	-0.1414604
255	0x3c929052	0.017891083

feature_extractor.6.bias f4 [120]
0	0xbe0bdaab	-0.13657634
1	0x3d6685a6	0.0562798
2	0xbdba5558	-0.09098309
3	0x3dd0801e	0.101806864
4	0xbcc718d0	-0.024303824
5	0x3d18c220	0.037294507
6	0x3d2bfb42	0.041987665
7	0xbcb78d2b	-0.022406181
8	0xbafe2c47	-0.0019391858
9	0x3a96c966	0.0011504113
10	0xbd894761	-0.067030676
11	0xbbae23d8	-0.0053143315
12	0xbd68cf51	-0.056838337
13	0x3d42dc97	0.047573652
14	0xbc1bd31c	-0.009510782
15	0x3d68c83e	0.05683159
16	0xbc1a30cc	-0.009411048
17	0xbdabff0c	-0.08398256
18	0xbd5a03b9	-0.053226206
19	0x3d23129c	0.03981267
20	0xbd2d7671	-0.042349283
21	0x3db4d160	0.088289976
22	0xbd17e3e9	-0.037082586
23	0xbdbd5f5c	-0.09246704
24	0xbd9158d0	-0.07097018
25	0xbe17df78	-0.1483134
26	0x3d1ea363	0.038730036
27	0x3dc2a394	0.09503856
28	0x3df27165	0.118380345
29	0x3d4e4ef6	0.05036827
30	0x3d4c3a0f	0.049860056
31	0xbc849c81	-0.016187908
32	0x3d93e95f	0.072222464
33	0xbdbe1c18	-0.09282702
34	0x3de3d05c	0.11123726
35	0xbe2d355f	-0.1691489
36	0x3c39a672	0.011331188
37	0xbe154267	-0.14576112
38	0xbde3db4e	-0.111258134
39	0xbb359172	-0.00277051
40	0xbda06e2c	-0.078335136
41	0xbdd3ea52	-0.103474274
42	0xbccc0231	-0.024903389
43	0xbcf67749	-0.030086176
44	0xbdbe1036	-0.09280436
45	0x39ae2e13	0.00033222194
46	0x3c4896f3	0.01224302
47	0x3dd11da8	0.102107346
48	0xbc709880	-0.014684796
49	0x3dd99bd3	0.10625424
50	0x3cea2dc8	0.028586283
51	0x3d82d8e1	0.063890226
52	0x3ca0e249	0.019639151
53	0xbd8c670b	-0.068555914
54	0x3c4373e3	0.011929485
55	0xbe60a080	-0.21936226
56	0x3daca39f	0.08429646
57	0xbdba19b8	-0.09086937
58	0x3e00eff4	0.12591535
59	0x3d8c6f5c	0.068571776
60	0x3dbde92a	0.09272988
61	0xbd67d19d	-0.056596387
62	0x3d3186db	0.0433415
63	0x3dd526fd	0.10407827
64	0x3dea984e	0.11454831
65	0xbc9f73cc	-0.019464396
66	0x3e3fc7d7	0.18728577
67	0xbcdbc2dc	-0.026826315
68	0x3caf08bb	0.021366468
69	0xbd971597	-0.07377165
70	0xbd94b51a	-0.07261105
71	0x3d8ab461	0.06772686
72	0x3d43416d	0.047669817
73	0xbdd4f433	-0.1039814
74	0xbcd68625	-0.026187012
75	0x3da74bc6	0.081687495
76	0x3d87c977	0.06630223
77	0x3d88e4fb	0.066842996
78	0x3b8e9892	0.004351684
79	0x3e26a021	0.16272022
80	0xbe7361c0	-0.23767757
81	0x3b879d15	0.0041385987
82	0xbcd607d8	-0.026126787
83	0x3c7a9bed	0.015295965
84	0xbd51b9f2	-0.051202722
85	0xbd84dc9e	-0.06487392
86	0x3dac296b	0.08406337
87	0xbd92a34c	-0.07160053
88	0xbc749dad	-0.014930171
89	0xbd171c58	-0.036892265
90	0xbe10c2d6	-0.14136824
91	0xbab05879	-0.0013454101
92	0xbce2c261	-0.027680578
93	0xbd4e0fd7	-0.050308075
94	0x3e04451b	0.12916987
95	0xbd0e5e8a	-0.03475813
96	0xbd9912c7	-0.074742846
97	0x3e3aa122	0.1822553
98	0x3d52f9ff	0.051507946
99	0xbd218e9f	-0.039442655
100	0xbde162f4	-0.11005202
101	0x3d94c99b	0.07265016
102	0xbd7c0705	-0.06153013
103	0x3da0fb2c	0.07860407
104	0xbc404839	-0.011735969
105	0xbd84a32c	-0.06476435
106	0x3dac4ff3	0.084136866
107	0x3d7b66c7	0.061377313
108	0x3e260cb5	0.16215785
109	0xbd489086	-0.048965953
110	0xbdd83355	-0.10556666
111	0x3d631b70	0.05544609
112	0xbe2a3bae	-0.16624328
113	0x3c9b3306	0.018945228
114	0xbcebff6f	-0.028808324
115	0xbd449bc2	-0.048000105
116	0x3dc22a2c	0.094807
117	0x3d2c3ab6	0.04204818
118	0xbe2ba6a1	-0.16762783
119	0x3da2907c	0.079377145

classifier.0.weight f4 [84, 120]
0	0x3e8e7cf5	0.2782971
1	0xbddd7767	-0.1081379
2	0xbd0ad202	-0.033891685
3	0x3e316fbd	0.17327781
4	0xbdb2ae27	-0.08724623
5	0xbe42db6e	-0.19029018
6	0xbe15a0b8	-0.1461209
7	0xbe804f80	-0.25060654
8	0xbcfb830e	-0.03070214
9	0xbddb4fe6	-0.10708599
10	0x3e95e1d5	0.2927386
11	0xbd833980	-0.06407452
12	0xbe2ef394	-0.17085105
13	0xbe817248	-0.25282502
14	0xbe90af00	-0.28258514
15	0x3ddfc667	0.10926514
16	0x3ebe04b8	0.37112975
17	0xbe0c567d	-0.13704868
18	0x3e8a7ca4	0.27048218
19	0xbe587454	-0.21138126
20	0xbc872669	-0.016497808
21	0xbd15ad7e	-0.03654241
22	0x3d693aa9	0.05694071
23	0xbd30a824	-0.0431291
24	0xbd6b5f12	-0.057463713
25	0x3e4ca0cd	0.19983216
26	0x3e686490	0.22694612
27	0x3c4013e1	0.0117234895
28	0xbe655dba	-0.22399035
29	0xbd1da8db	-0.03849111
30	0xbe149407	-0.14509593
31	0x3e4de5a7	0.20107137
32	0xbe925a63	-0.28584585
33	0xbd7570e1	-0.059922103
34	0xbe66bc71	-0.22532822
35	0x3db2a96e	0.087237224
36	0xbdd6b1f5	-0.10483161
37	0x3e9181ee	0.2841944
38	0x3d936ea5	0.07198838
39	0x3d285257	0.04109415
40	0xbc904ac6	-0.01761378
41	0xbd616f49	-0.05503777
42	0x3cad7a02	0.021176342
43	0xbe7e302c	-0.24823064
44	0x3c09881d	0.008394268
45	0xbd7d7a6f	-0.06188434
46	0xbc9d155d	-0.019175226
47	0xbcbc40e6	-0.022980165
48	0xbec8e510	-0.3923726
49	0x3e65053e	0.22365281
50	0x3eb2eb7f	0.34945294
51	0xbde16cb0	-0.110070586
52	0xbda0a457	-0.07843845
53	0x3d9922ac	0.07477316
54	0xbd617309	-0.055041347
55	0x3df39798	0.118941486
56	0xbc396775	-0.01131617
57	0xbe2f2caa	-0.17106882
58	0x3e3a98ae	0.18222305
59	0xbe681e16	-0.22667727
60	0x3e2fdfff	0.17175291
61	0x3d0f30e8	0.03495875
62	0xbd7546a5	-0.059881825
63	0xbe19311b	-0.14960138
64	0xbd5824f3	-0.052769613
65	0x3d80352b	0.06260141
66	0x3e54dda8	0.2078768
67	0x3dc79c3f	0.097465985
68	0x3e0ed39e	0.13947913
69	0xbe6b34ea	-0.22969404
70	0xbcb7b1a3	-0.022423571
71	0x3de6f39c	0.112769336
72	0xbedbb536	-0.4291169
73	0x3c91892f	0.01776561
74	0xbd40e4f7	-0.047093358
75	0xbe02d9f6	-0.12778458
76	0xbe8efc27	-0.27926752
77	0xbda81bd2	-0.08208431
78	0x3c88df75	0.016708115
79	0x3c7d7f0f	0.015472188
80	0x3e476fd4	0.19476253
81	0xbe7a6ab7	-0.24454771
82	0xbed12e7b	-0.40855774
83	0x3db6a776	0.089186594
84	0x3d919863	0.071091436
85	0xbd21cfd4	-0.03950484
86	0x3e489304	0.19587332
87	0xbe4b57ab	-0.19857661
88	0xbd8b7448	-0.06809288
89	0x3ee803d8	0.45315433
90	0x3e143fd7	0.14477478
91	0x3c6a65f1	0.014306531
92	0xbd19dede	-0.03756606
93	0x3e05fc78	0.1308459
94	0x3dd6ec2c	0.10494265
95	0xbce14cff	-0.027502535
96	0xbe512a3c	-0.20426267
97	0x3e99a4ba	0.3000849
98	0x3e1edfc5	0.15515049
99	0xbda1a2b0	-0.07892358
100	0x3ed1b99b	0.40961918
101	0x3e01004d	0.12597771
102	0x3be1f983	0.006896199
103	0xbdfbc56d	-0.12293515
104	0xbd6dba78	-0.05803916
105	0x3dc65abf	0.09685277
106	0x3d561f85	0.052276153
107	0xbd97ea15	-0.074176945
108	0xbe798cc7	-0.24370109
109	0xbdec2e9f	-0.1153233
110	0x3e83b362	0.25722796
111	0xbe1c332b	-0.15253894
112	0xbcc56b84	-0.024099119
113	0xbe212db7	-0.15740095
114	0x3d9836b7	0.07432311
115	0xbe02734a	-0.12739292
116	0xbdb616d8	-0.08891076
117	0xbcfa9103	-0.030586725
118	0x3e7281c0	0.23682308
119	0x3d87c99b	0.0663025
120	0xbead36ef	-0.33830974
121	0xbda106b8	-0.078626096
122	0xbe363075	-0.17791922
123	0x3e1620e3	0.14660983
124	0xbd3bc5e7	-0.04584303
125	0x3e543d15	0.20726426
126	0xbd3501eb	-0.044191282
127	0xbb28ad0e	-0.0025737914
128	0x3e39d884	0.18149
129	0xbe41debf	-0.18932627
130	0x3d4cfd73	0.050046396
131	0xbd8d722c	-0.06906542
132	0x3e36bd94	0.17845756
133	0x3e5fbb4c	0.21848792
134	0xbd9ddf24	-0.07708576
135	0xbd3efb1a	-0.046626188
136	0xbdeae81e	-0.11470054
137	0x3d1ed3d2	0.038776226
138	0xbec9a848	-0.393862
139	0x3dea8b76	0.11452381
140	0xbc6f4d43	-0.014605823
141	0x3ddbf75e	0.10740541
142	0xbe5f83f2	-0.21827677
143	0xbea2830d	-0.3174061
144	0xbe310744	-0.17287928
145	0xbd039d25	-0.032132287
146	0xbe76d1f2	-0.24103525
147	0x3e3b923b	0.18317501
148	0x3e2661f7	0.16248308
149	0x3e0cc8ce	0.13748476
150	0xbe33212c	-0.17493123
151	0xbea8fdd9	-0.3300617
152	0x3e4628ad	0.19351454
153	0xbd48aa5a	-0.048990585
154	0x3dfaf783	0.1225424
155	0xbe0c4fea	-0.1370236
156	0xbd75d4a9	-0.06001726
157	0xbe99c35d	-0.30031863
158	0xbe31b0aa	-0.17352548
159	0xbd69b95a	-0.05706153
160	0xbee4294b	-0.44562754
161	0x3e8ce869	0.27521065
162	0xbeb7ab5a	-0.35872918
163	0x3e0f3b88	0.13987553
164	0xbea988b3	-0.33112106
165	0x3e57bab8	0.21067321
166	0x3e88f100	0.26746368
167	0x3e128901	0.14310075
168	0xbcb9adc8	-0.022665873
169	0xbdda85ff	-0.10670089
170	0xbcd49407	-0.025949491
171	0xbe0659a6	-0.13120136
172	0x3e9bff3e	0.30468172
173	0xbd854772	-0.06507768
174	0xbe6d2994	-0.23160392
175	0xbe524a4b	-0.20536153
176	0x3e4a07da	0.19729558
177	0x3df18da7	0.11794596
178	0x3e13d45d	0.14436479
179	0x3e57d6ce	0.21078035
180	0xbc9ecadc	-0.01938384
181	0xbd5bb8e9	-0.05364314
182	0x3e9249c6	0.2857191
183	0x3e8a0294	0.26955092
184	0xbda50478	-0.08057493
185	0xbe47e0e1	-0.19519378
186	0xbca5a678	-0.02022098
187	0xbd91e134	-0.07123032
188	0xbec241a5	-0.37940708
189	0x3e581cee	0.21104786
190	0xbe8d7df3	-0.27635154
191	0x3e4a2b71	0.19743134
192	0x3e8d6d70	0.27622557
193	0xbc027049	-0.007961341
194	0xbdb70465	-0.08936385
195	0x3ea4ab42	0.3216191
196	0x3cc0aeb3	0.023520803
197	0x3d9d7854	0.076889664
198	0xbe91594b	-0.28388438
199	0x3e435b37	0.19077764
200	0xbc22b575	-0.009930958
201	0x3e08a47f	0.13344
202	0xbdc37641	-0.095440395
203	0x3e3ccebe	0.18438241
204	0x3e809300	0.25112152
205	0x3e4ea9a5	0.20181902
206	0x3d8007e5	0.06251506
207	0x3e5661e1	0.20935775
208	0xbe57f3bd	-0.21089073
209	0xbe0d4abc	-0.1379804
210	0x3cf6f9fd	0.0301485
211	0xbec41beb	-0.3830255
212	0x3e1602a9	0.14649452
213	0x3c884a55	0.016637007
214	0x3d81cb74	0.06337634
215	0x3df2a2db	0.118474685
216	0xbe1477b8	-0.14498794
217	0x3e21bf5e	0.15795657
218	0xbe7ced65	-0.24699934
219	0xbe4db08b	-0.20086877
220	0xbd009622	-0.031393178
221	0x3c15caa1	0.009142549
222	0x3e30e6e1	0.17275573
223	0xbdc400b4	-0.095704466
224	0xbdce52a1	-0.10074354
225	0x3e203ff4	0.15649396
226	0x3e824db5	0.2544991
227	0x3da643a1	0.08118368
228	0x3dfc56da	0.12321253
229	0x3d367b6c	0.044551298
230	0xbd94a47c	-0.072579354
231	0x3e72b41e	0.23701522
232	0x3dd1d584	0.10245803
233	0x3dc4a4b3	0.096017264
234	0x3da4f553	0.080546044
235	0x3d865ff1	0.06561268
236	0x3e1f1890	0.15536714
237	0x3ce2efce	0.027702238
238	0xbd58af68	-0.052901655
239	0xbda30ccb	-0.079614244
240	0xbddc3258	-0.1075179
241	0xbc52beba	-0.012862856
242	0xbe80c6d3	-0.2515169
243	0xbe395497	-0.18098675
244	0xbcb3de0e	-0.02195647
245	0xbd15c32f	-0.036563095
246	0x3b4fd0af	0.0031710078
247	0x3e9c8e20	0.30577183
248	0xbeadaed4	-0.33922446
249	0x3d85c5e0	0.06531882
250	0xbdae7cf8	-0.0851993
251	0x3e38c0fe	0.1804237
252	0x3e9a18d1	0.30097058
253	0x3e0d07d0	0.13772511
254	0xbe9066f3	-0.28203544
255	0x3de045a2	0.109507814

classifier.0.bias f4 [84]
0	0xbe1989e1	-0.14994003
1	0x3dffb3ee	0.12485491
2	0xbd09366a	-0.03349916
3	0xbc8e2a51	-0.017354162
4	0x3d8245be	0.063609585
5	0x3e23f105	0.1600991
6	0x3d988a1c	0.07448217
7	0x3e40af96	0.1881698
8	0xbdbc4ece	-0.09194718
9	0x3d1ec9fd	0.03876685
10	0xbd091969	-0.0334715
11	0xbd27f64a	-0.041006364
12	0x3b98481b	0.0046472675
13	0x3d42971f	0.0475074
14	0xbcfaea3e	-0.030629274
15	0x3d623c92	0.055233546
16	0x3d02a206	0.0318928
17	0xbe30ad0e	-0.17253515
18	0xbb361ea9	-0.002778927
19	0xbcdf3073	-0.027244782
20	0x3e0aa18b	0.13538186
21	0xbd46e9dd	-0.048562873
22	0xbdbe5e14	-0.09295288
23	0xbda52df8	-0.080654085
24	0x3d860e3d	0.065456845
25	0xbc814092	-0.01577786
26	0xbdb4d2d4	-0.08829275
27	0xbe0c8a1f	-0.13724564
28	0xbdbec106	-0.0931416
29	0x3d0b29d7	0.03397545
30	0xbddd97ac	-0.10819945
31	0x3d5020f5	0.05081268
32	0xbe069f3e	-0.13146684
33	0xbdaad2f6	-0.08341019
34	0xbd6270cd	-0.055283356
35	0xbde0cac0	-0.109761715
36	0xbcfd175a	-0.030894924
37	0x3c56b0ea	0.013103703
38	0x3d613cba	0.054989554
39	0xbd955f24	-0.07293537
40	0xbd1f3a21	-0.038873795
41	0xbd9df2ab	-0.07712301
42	0xbdb94367	-0.09046059
43	0x3e0304ad	0.12794752
44	0x3da2b80b	0.0794526
45	0x3e1c1d2a	0.152455
46	0x3dbde4d1	0.09272159
47	0xbdb1c8b1	-0.08680857
48	0xbb87c8c6	-0.004143807
49	0x3da416a2	0.08012129
50	0xbd411fd8	-0.04714951
51	0x3e361ac9	0.17783655
52	0xbd229d74	-0.03970094
53	0xbcac013f	-0.020996688
54	0xbb00aedb	-0.0019635472
55	0xbd7d84fc	-0.061894402
56	0x3d46584b	0.048424046
57	0xbb7e9ba3	-0.003885009
58	0x3dfcfbd5	0.12352721
59	0xbe36b78d	-0.17843457
60	0xbd082569	-0.033238802
61	0xbc2facfa	-0.010722393
62	0x3e29ae41	0.16570379
63	0xbe1d3a2d	-0.15354224
64	0xbd947f8f	-0.07250892
65	0x3e1c7257	0.15277992
66	0x3d14ebb6	0.036357604
67	0x3df68ba5	0.12038354
68	0x3d9450d1	0.07241977
69	0x3da03a0f	0.07823574
70	0xbe04d1ac	-0.12970608
71	0x3dd070fd	0.10177801
72	0x3dc55954	0.096361786
73	0x3d53d067	0.05171242
74	0xbdbcc501	-0.09217263
75	0x3d9fa48a	0.07795055
76	0xbde3a5ae	-0.11115585
77	0xbdfb957b	-0.122843705
78	0xbe3c5922	-0.18393376
79	0xbc026f4d	-0.0079611065
80	0xbe1ac88a	-0.15115562
81	0x3df41ac5	0.119191684
82	0x3dc2a806	0.09504704
83	0x3daffb75	0.085928835

classifier.2.weight f4 [10, 84]
0	0xbec7a439	-0.3899248
1	0x3c1133f3	0.008862483
2	0x3f0be3fd	0.5464476
3	0x3df34698	0.11878699
4	0x3d882466	0.066475675
5	0xbd561823	-0.052269112
6	0x3eae3c75	0.340305
7	0x3e38e93b	0.1805772
8	0xbed6dc00	-0.41964722
9	0x3c0dc638	0.008653216
10	0x3d1eda70	0.038782537
11	0x3ed41875	0.4142491
12	0xbe8a1a95	-0.26973405
13	0x3f0b5076	0.5441965
14	0xbe557921	-0.20846988
15	0x3de00bb1	0.1093973
16	0xbcd78416	-0.0263081
17	0x3b6b8329	0.0035936332
18	0x3da0cc49	0.07851464
19	0x3e780a9d	0.24222799
20	0xbf4b1221	-0.7932454
21	0xbe4bd96b	-0.19907157
22	0xbef004f8	-0.4687879
23	0x3ee37262	0.44423205
24	0xbeb8f1a6	-0.36121863
25	0xbe5b7316	-0.2143062
26	0xbf1ad1d4	-0.6047642
27	0x3e68980f	0.22714256
28	0x3eea5583	0.45768365
29	0xbec6bf42	-0.38817793
30	0xbf05c8ff	-0.5225982
31	0x3ee76801	0.45196536
32	0x3ea3cb6c	0.31991136
33	0xbf2883b2	-0.6582595
34	0x3f1188e2	0.5684949
35	0xbe6c4de2	-0.23076585
36	0xbeaca905	-0.33722702
37	0xbca0edb5	-0.019644598
38	0xbd545579	-0.051839326
39	0xbd2b4273	-0.041811418
40	0xbeb8bc18	-0.36081004
41	0x3e0a24dd	0.13490625
42	0xbea3ef43	-0.3201848
43	0x3e8555a8	0.26041913
44	0x3d4d520e	0.05012708
45	0xbeea9367	-0.45815584
46	0x3db6be02	0.0892296
47	0x3efc0f56	0.4923045
48	0x3e459e65	0.19298704
49	0x3e14e3ab	0.14539973
50	0xbe82f8e5	-0.25580516
51	0x3e9247a1	0.28570274
52	0xbe230ba4	-0.1592241
53	0xbef2909c	-0.47375953
54	0x3f04b9d6	0.51846063
55	0xbe453c29	-0.1926123
56	0xbea66dbd	-0.325056
57	0xbf28241d	-0.65680104
58	0x3d475f1e	0.048674695
59	0xbe6ac5d8	-0.22927034
60	0xbd947bd8	-0.07250184
61	0xbf026a5f	-0.5094356
62	0xbecb8d84	-0.39756405
63	0xbe975723	-0.29558668
64	0xbe0fd921	-0.14047672
65	0x3f105ad3	0.56388587
66	0x3e6bee47	0.23040114
67	0xbeb444cd	-0.3520874
68	0xbee876a3	-0.45403013
69	0xbe2a16e1	-0.1661029
70	0xbeedd3b8	-0.4645059
71	0x3e47ec5e	0.1952376
72	0xbe34a1e4	-0.17639881
73	0xbe846b36	-0.25863045
74	0x3f0e3300	0.5554657
75	0x3e3da077	0.18518244
76	0x3e3498f4	0.17636472
77	0xbee73d83	-0.45164117
78	0x3eb99c5f	0.36252114
79	0xbe9d441e	-0.30716032
80	0xbcf81185	-0.030281791
81	0x3d560e4c	0.05225973
82	0x3e862e36	0.2620713
83	0xbed16587	-0.40897772
84	0xbeee704f	-0.4657006
85	0xbe7aae78	-0.24480617
86	0x3ced3a56	0.02895848
87	0xbeb7afcf	-0.3587632
88	0xbe48887a	-0.19583312
89	0x3e90b34c	0.28261793
90	0xbd9f127b	-0.07767197
91	0x3f05a1c2	0.5219995
92	0xbd9210a9	-0.07132084
93	0xbf0fce90	-0.56174564
94	0xbec83f67	-0.39110872
95	0xbecd9ed7	-0.40160248
96	0xbeceae11	-0.40367177
97	0x3ebdd710	0.37078142
98	0x3e56a69d	0.20961995
99	0x3da38b05	0.079855
100	0x3f1c029a	0.6094147
101	0xbec8e586	-0.39237612
102	0xbdf65f60	-0.1202991
103	0xbf037d0e	-0.51362693
104	0x3d017120	0.031602025
105	0x3ec2cd93	0.38047466
106	0x3ec17230	0.3778243
107	0x3ef37758	0.4755199
108	0x3eff8ccf	0.49912116
109	0x3e055048	0.13018906
110	0xbde41f0d	-0.11138735
111	0xbeb50611	-0.3535619
112	0xbe34f3ff	-0.17671202
113	0x3e9249e6	0.28572005
114	0x3e33c150	0.17554212
115	0xbdb1c38e	-0.08679877
116	0xbeb96e27	-0.36216852
117	0xbe147092	-0.14496067
118	0xbcd56434	-0.026048757
119	0x3e70509d	0.23468252
120	0xbe58b2a3	-0.21161895
121	0x3f2e5b57	0.68108124
122	0x3ec15869	0.37762764
123	0xbec89cba	-0.39182073
124	0xbd5fa2ae	-0.054598503
125	0xbe54fedb	-0.20800345
126	0xbe325c85	-0.17418106
127	0x3e27b27f	0.16376685
128	0x3efb9686	0.49138278
129	0x3ea65a96	0.32490987
130	0xbd2d3525	-0.04228701
131	0xbea42bff	-0.32064816
132	0xbea0c1db	-0.313979
133	0x3ef454f2	0.47721058
134	0x3d1bb699	0.038015936
135	0x3f07739e	0.5291079
136	0x3e24ec6a	0.1610581
137	0x3e9d3ab7	0.30708858
138	0xbe3e7a93	-0.18601446
139	0xbf0246fc	-0.50889564
140	0x3ecc7f71	0.3994098
141	0x3dc93578	0.098246515
142	0xbe9b46ae	-0.30327362
143	0xbefbc74f	-0.49175498
144	0x3e2e540f	0.17024253
145	0xbe66b75e	-0.22530887
146	0x3d3454d3	0.044026207
147	0x3dcdeece	0.10055314
148	0x3ee7a86a	0.45245677
149	0x3e5caedc	0.21551079
150	0xbe622c67	-0.2208725
151	0x3e734d9c	0.23760074
152	0xbdebb4c6	-0.11509089
153	0xbe86aedb	-0.2630528
154	0x3e9ab19f	0.3021364
155	0xbeb78093	-0.35840282
156	0x3dda0920	0.10646272
157	0x3e3d8267	0.18506776
158	0x3d0b520a	0.034013785
159	0xbeb14a65	-0.3462707
160	0xbef142af	-0.47121188
161	0xbec15ffb	-0.3776854
162	0xbe8052ef	-0.25063273
163	0x3d08087a	0.03321121
164	0xbe724c98	-0.2366203
165	0xbea3e8c5	-0.32013527
166	0x3d6f21c5	0.058381815
167	0x3ea39063	0.31946096
168	0xbe8e257d	-0.27762976
169	0x3e900f02	0.2813645
170	0xbeb238fc	-0.348091
171	0x3e91fb0a	0.2851184
172	0xbe833e88	-0.25633645
173	0x3e8a1c70	0.2697482
174	0x3ea236d3	0.31682453
175	0xbecde2c0	-0.4021206
176	0xbe5f8aba	-0.21830264
177	0xbe04a8bb	-0.1295499
178	0xbd1d12d4	-0.038348034
179	0x3e086ca2	0.1332269
180	0x3eedd935	0.46454778
181	0x3ea690b0	0.32532263
182	0x3def681c	0.11689779
183	0xbefd4718	-0.49468303
184	0x3e15792c	0.14597005
185	0x3eb7e60a	0.35917693
186	0x3e4d9a4d	0.20078392
187	0xbda8acdc	-0.08236095
188	0x3ee8666c	0.45390642
189	0x3e49d99a	0.19711915
190	0xbe9326f5	-0.2874066
191	0xbe9606ce	-0.29302067
192	0xbe75e0ec	-0.24011582
193	0x3ea03ddc	0.31297195
194	0xbe0a7279	-0.1352023
195	0x3ca4d890	0.020122796
196	0x3ed0046c	0.40628374
197	0x3eca00e3	0.39453802
198	0xbf3acc8c	-0.72968364
199	0xbee2806d	-0.44238606
200	0x3e302ff2	0.1720579
201	0xbe837eb5	-0.25682607
202	0xbe8fe9cd	-0.28108063
203	0xbee8877f	-0.45415875
204	0x3f01b725	0.5067008
205	0x3ea35a8a	0.31905013
206	0x3e8fc2b3	0.2807823
207	0x3ed375ae	0.4130072
208	0x3de34418	0.11096972
209	0x3f181840	0.59412
210	0xbd2be2b0	-0.041964233
211	0x3e39d0fb	0.18146126
212	0xbe67b706	-0.22628412
213	0x3ea5d214	0.3238684
214	0x3e11e635	0.14247973
215	0xbeb21317	-0.3478019
216	0xbd366487	-0.044529464
217	0x3ef363b0	0.47536993
218	0xbe99fc94	-0.30075514
219	0x3f08f339	0.5349613
220	0xbd072cd9	-0.033001754
221	0xbef7cd06	-0.48398608
222	0x3ebfd129	0.37464264
223	0x3eaa6cd1	0.33286145
224	0x3df1624a	0.11786325
225	0xbe977c08	-0.29586816
226	0xbe9191e0	-0.28431606
227	0xbeca8ef8	-0.39562201
228	0x3ee3d77c	0.4450034
229	0x3ea45d21	0.32102302
230	0x3edba2bc	0.42897594
231	0x3dc70cd5	0.097192444
232	0xbefb1f32	-0.49047238
233	0x3ed0cda7	0.407819
234	0x3e97ffac	0.2968725
235	0x3eb8a1f9	0.36061075
236	0x3db450ff	0.08804511
237	0x3e2a0233	0.16602401
238	0xbef362c3	-0.47536287
239	0x3e8c9710	0.27459002
240	0x3f0a937b	0.5413129
241	0xbec1e0ab	-0.3786672
242	0xbe92355c	-0.28556335
243	0x3eab2c17	0.33432075
244	0xbe954a48	-0.29158235
245	0x3c30ce62	0.010791393
246	0xbe14dc19	-0.14537086
247	0xbe158f92	-0.14605549
248	0xbee26caa	-0.4422353
249	0x3f1a5856	0.6029104
250	0x3e8d9278	0.2765081
251	0x3ef0b935	0.47016302
252	0x3e70fdf4	0.23534375
253	0x3eb73dc7	0.3578932
254	0xbe1cf596	-0.15328059
255	0x3e6aa642	0.22914985

classifier.2.bias f4 [10]
0	0xbc918e83	-0.01776815
1	0x3db414ad	0.08793006
2	0x3df305f6	0.11866371
3	0xbe39ff8f	-0.18163894
4	0x3d3427ea	0.043983378
5	0xbd0f3636	-0.03496381
6	0xbe0bd3f0	-0.13655066
7	0xbc3a633e	-0.0113762
8	0x3c0f01ca	0.008728454
9	0xbcb7d76f	-0.022441594
