02_code_organisation/final_exercise/cookiecutter project/src/models/model.pth (torch, 177875 bytes, 10 tensors)

feature_extractor.0.weight f4 [6, 1, 4, 4]
00000000: 8cb0 af3b 0061 ef3e fd0a 623e 2b9d 5c3d
00000010: 2b83 793e bb4b 263e dee3 07be abb7 77be
00000020: 934f 3a3d 0b0a a4bd 9997 01bd a6ef a4be
00000030: df2c 6fbe 41eb a7be c91a d3be 108f e1be
00000040: bff8 0f3d 3846 adbc b3d2 983d 631e 663d
00000050: f813 f9be 2737 74be 4a58 30bd 8821 b63e
00000060: 4869 35be 3867 f33d 5626 b63e 87d1 f83e
00000070: 0e5a 41bd 5bd3 c23e 8909 c23e 01cb 82bd
00000080: 57fe 4c3e cd11 6c3c 11e7 d23d b420 3b3e
00000090: 7f35 3a3c 4a9a 3c3e 4b34 01be 47b8 a8bd
000000a0: 0256 973e 5de3 b0be c1d5 81be 95d9 8dbe
000000b0: a289 f53d e09e e4be e6fa 6abe d564 dbbe
000000c0: 7700 ccbe 9876 673e 34c6 e43e 8570 ef3e
000000d0: 613a 5bbc caa9 ae3e 300b b63e c48b c53e
000000e0: d033 aabd 5585 793d 0964 ab3e 797b 1c3e
000000f0: 7439 4cbe 3122 cabd 522c e3be 5ee4 06bf
00000100: 1911 263e 5d84 6f3e 3b50 8d3e 7721 7f3e
00000110: 6888 26bd 7048 4fbd d1fc c53e 073b 913e
00000120: 5c43 59be 371b 863e f3e5 483e bec7 abbb
00000130: db98 d9be 9923 2bbe 1b6e 80bd 1edc 7b3d
00000140: 88a8 27be fa63 f33d f03a 963c c6fa 2bbe
00000150: 821c b8be c62f 6a3c 2dbe 8c3d 7edd 5f3e
00000160: 0266 9cbe 3196 e83d 56ec 373e 8d0f 8ebd
00000170: 7360 a1be f286 f8bd 42c8 2c3e 0699 bd3e
0.005361622 0.46753693 0.22074504 0.053860825 0.24366443 0.16239826 -0.13270518 -0.24191158
0.045486044 -0.08009728 -0.031638715 -0.32214087 -0.2335696 -0.32796672 -0.41231373 -0.4405446
0.035149332 -0.021151647 0.07462063 0.056181323 -0.48648047 -0.23849164 -0.04305295 0.35572457
-0.17715943 0.11884922 0.35576123 0.48597357 -0.047205023 0.38051876 0.378979 -0.06386376
0.20018898 0.014408541 0.10297979 0.18274194 0.0113652935 0.18418232 -0.12617604 -0.08238273
0.29557806 -0.34548464 -0.25358394 -0.27705064 0.11989142 -0.44652462 -0.22947273 -0.42850366
-0.39844105 0.22603834 0.44682467 0.46765533 -0.013380618 0.34113914 0.3555541 0.38583195
-0.08310664 0.06091817 0.33474758 0.15281476 -0.19943792 -0.09869803 -0.4436975 -0.5269221
0.1621746 0.23390336 0.27600273 0.2491511 -0.04065743 -0.05060619 0.38669446 0.28365347
-0.21217102 0.26192638 0.19618969 -0.005242317 -0.42499432 -0.16712798 -0.06271001 0.061489217
-0.16372883 0.118843034 0.01833865 -0.16794881 -0.3595925 0.014293617 0.06872211 0.21861836
-0.30546576 0.11356772 0.17961249 -0.0693656 -0.31518897 -0.12135114 0.16873267 0.3703081

feature_extractor.0.bias f4 [6]
00000000: 8c22 77be dd4a 36be 7f15 b7be 0c15 923e
00000010: 6908 b2bd ea39 303d
-0.24134272 -0.17801996 -0.35758588 0.28531682 -0.0869301 0.04302398

feature_extractor.3.weight f4 [16, 6, 4, 4]
00000000: 4c80 163d 0930 9ebd 3942 19bc 51c9 003e
00000010: b9e4 293c 8b46 bcbd c636 573e dfdd 2c3e
00000020: cdab 163d 59f0 783c 32eb be3e 1773 853d
00000030: 8d19 6e3d 9567 c83d ab6f 953e 0838 64bd
00000040: 7cc8 dc3d 8374 033e c95e 053e 4d9e 15be
00000050: 38b9 913d 709a 163e 0f04 fdbd e211 cbbd
00000060: b6a7 9d3d 5a45 fc3d 49a8 83bd b5d0 06bd
00000070: cbe3 af3d 22ab 803d 7b58 7cbe 6cc8 15bc
00000080: f7e7 b9bd 527c 1dbe 8af0 c6bc b2c6 413e
00000090: 64db b6bd 9f0f 08be d6d8 df3d 7f39 893e
000000a0: 6fd7 c6bb 8f8e c8bd c50b 833e a87b 483d
000000b0: 7b35 00be 7c47 4ebd e560 5f3e 6fc2 0a3e
000000c0: c257 5f3e 0b55 3d3d 8f57 31bd df04 4cbd
000000d0: a9dc 37bd 6b19 ecba d2a6 193d 0455 4fbe
000000e0: 750e 89bd f8dd 383d c7a1 59bd 8110 8cbe
000000f0: 8076 813d 20ba a5bc 6c60 6bbe 4b55 eb3b
00000100: 79ae 093e be2e 4dba d496 49bd fff7 d2bd
00000110: 2420 e03d 37cd 3c3e e45b ce3c 859a 19bd
00000120: d3f1 32bc 6ab7 303e 7f90 30be 9e8a bbbd
00000130: 9531 233e a365 213e d400 e9ba 7162 9bbd
00000140: 12dc 79be 9e79 14be e320 09be 65e9 24bd
00000150: 4b54 55be 6471 19bd c21c 1abe 6561 9a3d
00000160: 938b 85be 950b c0bd 300c 7cbe a082 673e
00000170: f505 6fbe 1eb6 23bd 8630 3bbe ada9 1b3e
00000180: f458 91bd 87ab 38be 4f22 6dbe 0202 94be
00000190: f101 25bd 5f84 9ebe d448 10be 6c71 85be
000001a0: 05c1 3e3e 0ddd 143e 6cb2 063e 4843 38be
000001b0: 3043 4f3e d3d2 513e 9ec0 943e 705b c5bd
000001c0: 03b8 a6bd 30ce a73c 87b5 3dbd 8ce8 75bc
000001d0: 57bc d73d 5da5 0c3e fd93 8d3d 7661 dd3d
000001e0: b282 3e3d fb00 5dbd 2104 48be 70fb 6f3c
000001f0: 0850 5cbe 8ad2 cebd baf2 bdbd 6cec c23d
00000200: f1dd 2abd 2740 96bd 81fc a9b9 012b c3bd
00000210: 6382 35bd 6b02 85be d1b0 14be f0ff 8dbd
00000220: 7d92 9c3d 07e4 063d 9dc8 933d eb4c d0bd
00000230: d640 7d3e 853f c33d 322e ea3d 8d4a 6f3c
00000240: e5e0 1bbd 3a91 01be 6e1b 24bd 0f7a 383e
00000250: e019 603e 310b 0b3e dcfd 803e 67c0 693e
00000260: 07b0 ae3d ac2b 793e dfc1 7f3e 0724 143e
00000270: bc1c 0abe 391d 2bbe d199 bd3d 45c6 393e
00000280: 3260 17be 9658 34be a209 e9bd 83cf ccbd
00000290: e36b 963d b5d4 573e 8cd1 473d 0a0f 353e
000002a0: 1cbb 5d3d 31fe 483e e047 863e 40b6 b13d
000002b0: 8cff 70bd 0e65 2cbe 4bc4 2fbc f8c8 283e
000002c0: 1190 e33d ed45 913d e78c ae3a 6532 223d
000002d0: 1e2e 493d 7a90 713e 034d 5bbe 34d9 0bbe
000002e0: 19b4 b3bc 31bf 1d3d d94d b43d ddb3 7dbd
000002f0: 4d74 09bc 4098 f33d 896c 5b3e 77f3 423e
00000300: f670 133e 4483 c33d 4fd0 ea3d 8503 c13d
00000310: 87ef 833d a84f 87bd 769e 17be dc10 31be
00000320: ece9 a53d e724 49be a2e3 a8bd 2d58 4c3e
00000330: 8629 d33d 7a42 aa3d 7d54 8e3e 95ae c73e
00000340: a8e7 1cbe 1329 32be 2762 d2bd 4246 5abe
00000350: 132f b7bd 4b44 a1bc 4a7a bc3d b23e fd3d
00000360: 2bc5 7c3c f1b9 c63d b979 3d3e ef48 38bd
00000370: c0ee 81be f38d 913d a70e 57bd dbc9 9ebe
00000380: 6507 b43c 62e6 263d c360 373e b925 0c3d
00000390: d680 6f3d e3b7 88bd 9804 04be eb83 10be
000003a0: e748 aa3d 6baf 62be 322b 02be 5ec2 113c
000003b0: 783a 9a3d da55 4abc 539f 323d c69f 3c3e
000003c0: 6fec fdbd c33f 39be 4d5a dfbd 1592 08be
000003d0: ceda 76bb 5308 0fbd 1611 2cbe a8ad 44bd
000003e0: dc4f c7bc 996e b23d 01b8 a63e 5b7e 793e
000003f0: cd84 7f3b 8948 4c3e cec0 713e fb03 bf3d
0.036743447 -0.07724006 -0.009354168 0.12576796 0.010369473 -0.091931425 0.21016988 0.16881512
0.036784936 0.015194022 0.37288815 0.06516092 0.058129836 0.09785382 0.29186758 -0.055717498
0.10780427 0.12837414 0.13024439 -0.14611168 0.07115406 0.1470735 -0.1235429 -0.0991552
0.07698004 0.12317915 -0.06428582 -0.032913882 0.0858837 0.06282641 -0.24643128 -0.009142023
-0.09077447 -0.15379456 -0.02428462 0.18923452 -0.08928564 -0.13287209 0.1093003 0.2680168
-0.006068162 -0.09792816 0.25594917 0.048946053 -0.12520401 -0.05036114 0.21814306 0.13550733
0.2181082 0.04622368 -0.043296393 -0.049809333 -0.044888172 -0.0018012946 0.037512608 -0.20247275
-0.066922106 0.04513356 -0.0531328 -0.2735634 0.0632143 -0.020230353 -0.22986001 0.0071817986
0.13445462 -0.00078270945 -0.049216107 -0.10301208 0.1094363 0.18437658 0.025190301 -0.037500877
-0.010921913 0.17257467 -0.17242621 -0.091572985 0.15936883 0.15761428 -0.0017776736 -0.075871356
-0.24400356 -0.14499518 -0.13391452 -0.040261645 -0.20832936 -0.037461653 -0.15050033 0.07538108
-0.2608305 -0.09377209 -0.24614024 0.22608423 -0.23342116 -0.039968602 -0.18280229 0.15201445
-0.070970446 -0.18034182 -0.23157619 -0.28907782 -0.040285055 -0.30960366 -0.14090282 -0.26063097
0.18628319 0.14537449 0.13154 -0.17994416 0.20240474 0.2049058 0.29053205 -0.09636581
-0.08140566 0.02048406 -0.046315696 -0.015009057 0.1053397 0.13734956 0.06912992 0.10809605
0.04651136 -0.053956013 -0.19532825 0.01464735 -0.21514904 -0.10098751 -0.09274812 0.0951775
-0.041715566 -0.07336455 -0.00032422322 -0.09529687 -0.0443138 -0.25978407 -0.14520575 -0.06933582
0.07645128 0.032932308 0.07215998 -0.10170921 0.24731764 0.095336 0.11434592 0.014605177
-0.038056273 -0.12653056 -0.04006522 0.18015312 0.2188487 0.13578488 0.2519368 0.22827302
0.08529668 0.24333066 0.249763 0.14466868 -0.13487524 -0.16710366 0.09257854 0.1814204
-0.1478279 -0.17611918 -0.113787904 -0.10000517 0.073447965 0.21077235 0.048783824 0.17681518
0.05413352 0.19628216 0.2622671 0.086773396 -0.05883746 -0.16835424 -0.010727952 0.16482913
0.11111463 0.070934154 0.0013317139 0.03959884 0.049116246 0.2359027 -0.21416096 -0.13657075
-0.021936463 0.038512412 0.08803911 -0.06193911 -0.008389545 0.11894274 0.21428122 0.19038187
0.1439856 0.09546521 0.11465513 0.094244994 0.064421706 -0.0660699 -0.14806542 -0.17291588
0.08101258 -0.19642983 -0.082465425 0.19955511 0.10310654 0.08313461 0.27798834 0.39000383
-0.15322745 -0.17398481 -0.10272627 -0.21315864 -0.089445256 -0.019685885 0.09203012 0.12365474
0.015427868 0.09703434 0.18503465 -0.04499143 -0.25377464 0.07107153 -0.052504208 -0.31013379
0.021976182 0.040747054 0.17908005 0.034215663 0.058472477 -0.066756986 -0.12892377 -0.14112823
0.08314686 -0.22137229 -0.1271179 0.008896438 0.07530683 -0.01234957 0.043608975 0.18420324
-0.12398612 -0.1809073 -0.109058954 -0.13336976 -0.003766704 -0.034920048 -0.16803393 -0.048017174
-0.024330072 0.08712501 0.3256226 0.24364607 0.0038989068 0.19949545 0.23608705 0.09326931

feature_extractor.3.bias f4 [16]
00000000: 94be 2ebe dc6f f2bd fb12 bb3d 4663 5d3d
00000010: fcfb dfbd c061 20be a9c7 8a3d d4ec 243d
00000020: 861d 59bc ddd0 bd3d 89db 243e 1b10 443e
00000030: 4a46 223d e760 473e 5807 86bd c069 453d
-0.17064887 -0.11837742 0.091344796 0.054049753 -0.10936734 -0.15662289 0.067763634 0.04026492
-0.013251668 0.09268353 0.16099371 0.19146769 0.039617814 0.19470559 -0.065443695 0.048196554

feature_extractor.6.weight f4 [120, 16, 4, 4]
00000000: c7c0 543a d781 92bd 1c31 a33d 3964 da3d
00000010: 69d3 27bd 6293 09bd 9d43 1a3e 07d1 6d3d
00000020: 0c48 b3bc 6c73 7ebc 9a7c 32bb c8f5 953c
00000030: 0d96 023e ddfd c33d fccd 0b3e cfa4 1b3c
00000040: 65f6 cc3d 64af 023d ef21 01bd fd54 2cbe
00000050: 7b8f 58bc dbf0 41bd ebe6 a13d d165 11be
00000060: 8725 9e3d 6ac4 ff3c bb39 053d 1160 d1bc
00000070: 9868 f2bc aa24 24bd c744 623d 37e6 013d
00000080: b858 613b feb4 a0bc 29b9 5cbd ad49 3dbe
00000090: a5d3 06be 5ac0 1d3c 4a38 8c3d d5bf 4cbd
000000a0: fd66 92bd b162 82bd 7fb3 873c e1a1 1b3d
000000b0: b07c d3bd e71e 1cbe a1b0 84be 0f48 09be
000000c0: cde4 2abd 4dbd f33d cc34 8a3d 758c b0bd
000000d0: 5877 d3bc 9ea3 f73d 0dd1 ea3c 20ce 30be
000000e0: 236f 2b3d 0d97 c53d b1a5 c5bb 8908 94bb
000000f0: f87b 00be 9438 39bd c077 dabc dda2 753c
00000100: e046 82bd 1044 0c3e b094 64bc a847 673d
00000110: 1ced d73d 2a8d 133d a991 dbbd 86b0 00be
00000120: 27f5 0abc 2727 9ebb 4c2d 543d 4200 073c
00000130: 93f7 233e 022f 343e 8f24 4d3e 8acb 2b3e
00000140: dd71 2cbd 8aaa 883d ec10 76bd 742d dc3d
00000150: da37 0b3e 8938 b9bd 5d23 ccbd 3a95 2c3d
00000160: 7415 f53d 0358 c3bc 28a0 933c 9630 3f3d
00000170: 9846 443e 2a39 2e3e 792e 3e3e 4b05 3a3e
00000180: c50a e93d 9cef b0bd 60ec c0bd 6fe9 103e
00000190: 3ff3 cd3c 1847 96bc fdcf 293d c6df 313d
000001a0: b47b 46bd 7d37 473d 0c86 103d 8466 ac3c
000001b0: 4074 dfbd 3f14 9b3d df86 12bd 830f 0b3d
000001c0: 35b0 eabd e8a5 db3d 561b 213e 0daf a33d
000001d0: 082f 9ebd fcfb 0a3d f78e 0dbe e05e 1e3e
000001e0: 10a1 813d c940 a0bd f9ef 07bd c912 13bd
000001f0: 2a01 3f3d 6b10 073e 6c61 d2bd 4113 15bd
00000200: 4f45 74bd 62b5 1c3e 5fa6 313e 5cf3 5b3d
00000210: 80ba 99bc dccb 8a3d 0830 fcbc 95b2 fc3c
00000220: 2a15 843c 94f1 0abd a407 1f3d 4c97 a9bc
00000230: 3ca2 00bd 68ed 84bd 3bad 073e aca7 8c3d
00000240: 04cc 5d3d 7c14 b1bd c68f a1bb 37a5 7abd
00000250: eeaa 1b3d d838 13bd d657 24bc 0ddf a63d
00000260: ee0e 8abb 43cb 923b 5495 92bd b10e d13b
00000270: 107d 293e fb3a c13d 7fe7 19be 498b cf3b
00000280: b916 6b3d e2c2 4cbd 2151 173d 5828 0ebe
00000290: 2e01 1cbc 1fba 763d 48b0 e93d f96e f03c
000002a0: 107b 19bd d4eb 03bd 8aa3 26be 6c87 9b3d
000002b0: 87f9 53ba afe1 39be 7903 83be 58a3 84be
000002c0: 36c8 073e 70e5 babc bcf0 35be efa1 16be
000002d0: dc46 e5bd 92e7 16bc b989 44bd 8bcb 06be
000002e0: 53a6 30be ea0e 963c 711f 4ebd a33c 17be
000002f0: 63b3 43be 0718 fcba 6242 07be 4bd9 adbd
00000300: fc91 473e 6d8e e6ba 99a2 ecbd ab40 69be
00000310: 955e 8e3c c720 0cbe bc15 19bc fcb7 eabc
00000320: 9efd 2e3d 24b9 13be 9fbe 4cbd 85b3 45bc
00000330: 24f9 4dbd 1938 17bd bd03 a9bc 9f35 34be
00000340: 7297 9cbd e6e1 19bd a571 a63b b237 283c
00000350: c4d5 8abd f981 db3d 2fc0 bebd 82fb 54bd
00000360: 34b2 cfbc 2ec0 983c 4e3b 8fbd 8e64 9d3c
00000370: e01e 01be 564a 9abc 4d8a cfbd 8d73 33bd
00000380: e195 683d b09b c1bd 48c3 1cbe 0386 8fbd
00000390: b715 e43c 56cf 913d 0c7f f53d d774 82bd
000003a0: 59c5 2f3d 10b8 c53d 4904 773e d114 1f3d
000003b0: b532 f1bc 0374 a83d 9118 513e de4a 473e
000003c0: edda 2fbc 2f15 b03c 196d 3cbe 68af 33be
000003d0: 616c 463d c186 243d 3d57 b6bd 5902 c7bd
000003e0: 3bfe 5bbd 4164 fdbd 7393 9f3c 8eda 31bd
000003f0: 9867 8cbd 6321 ddbd 4181 69bb 9b0f 58bd
0.0008115884 -0.07153671 0.07968351 0.10663647 -0.0409731 -0.03358782 0.15064855 0.058060672
-0.02188494 -0.015530448 -0.0027234913 0.018305674 0.12752552 0.09569905 0.13652796 0.009499743
0.100079335 0.031905547 -0.031526502 -0.16829295 -0.013217802 -0.04734884 0.07905372 -0.14198996
0.077220015 0.031221587 0.03252576 -0.025558503 -0.02959089 -0.040074028 0.055241372 0.03171369
0.0034385156 -0.019617554 -0.05388752 -0.18485136 -0.13166673 0.00962838 0.06846674 -0.049987633
-0.0714855 -0.0636648 0.016565083 0.037996177 -0.10326517 -0.15246163 -0.25916007 -0.13406394
-0.041722108 0.11901341 0.067483515 -0.0862054 -0.025813743 0.120917544 0.028664136 -0.1726613
0.041854035 0.09647951 -0.006031715 -0.004517619 -0.1254729 -0.045219973 -0.02666843 0.014992443
-0.063611746 0.13697839 -0.0139514655 0.05646482 0.10543272 0.036023296 -0.10721142 -0.12567338
-0.0084813 -0.0048264447 0.05180101 0.008239808 0.16012411 0.17596057 0.20033477 0.16776863
-0.042100776 0.06673153 -0.06007473 0.10750857 0.13595524 -0.09043986 -0.099676825 0.0421345
0.119669825 -0.023845678 0.018020704 0.046677195 0.19167554 0.17013994 0.18572415 0.18166082
0.11379007 -0.08639452 -0.09420085 0.14151548 0.025140403 -0.018344447 0.04145812 0.043426298
-0.048457816 0.048636902 0.035284087 0.021044977 -0.10910845 0.07572221 -0.035773154 0.03395034
-0.1145939 0.107250035 0.15733084 0.07992373 -0.07723814 0.033931717 -0.13824068 0.1546588
0.06329548 -0.07824857 -0.03318784 -0.035906587 0.04663197 0.13189857 -0.10272488 -0.036395315
-0.05963641 0.15303567 0.17348622 0.053698882 -0.018765688 0.06777164 -0.030784622 0.030846873
0.016123373 -0.033921793 0.038825646 -0.020702027 -0.03140472 -0.06490594 0.13249676 0.06867918
0.054149643 -0.08646485 -0.004930469 -0.061192717 0.038004808 -0.035942882 -0.010030707 0.08148012
-0.0042132055 0.004479797 -0.07157388 0.006379925 0.16551614 0.09435078 -0.15029715 0.0063337428
0.057394717 -0.049990542 0.036942605 -0.13882577 -0.009521766 0.060236093 0.11410576 0.02934979
-0.037470877 -0.032207325 -0.16273323 0.07594189 -0.00080861937 -0.18152498 -0.25588587 -0.2590587
0.13259968 -0.022814482 -0.17767614 -0.1471021 -0.11195156 -0.009210484 -0.047982905 -0.13163583
-0.17250948 0.018317658 -0.050322954 -0.14769225 -0.191114 -0.0019233235 -0.13208917 -0.08488711
0.19489282 -0.0017590054 -0.115544505 -0.22778575 0.017379085 -0.13684379 -0.009343561 -0.028652184
0.042722337 -0.14426094 -0.049986478 -0.012066727 -0.050286427 -0.036918733 -0.020631665 -0.1759858
-0.076460734 -0.03756895 0.0050794655 0.010267185 -0.06779054 0.1071815 -0.09314 -0.05199767
-0.025353529 0.018646326 -0.06993733 0.019212987 -0.12609434 -0.018834274 -0.10133801 -0.04381137
0.05678356 -0.09453523 -0.15308869 -0.070079826 0.027842386 0.07119624 0.11987123 -0.06369942
0.042912815 0.09654248 0.24122728 0.03883821 -0.029443124 0.082252525 0.20419528 0.19462153
-0.010733348 0.021494476 -0.18400992 -0.17547381 0.048443202 0.040167574 -0.08903358 -0.09717245
-0.05370925 -0.123726375 0.019479489 -0.04342132 -0.068556964 -0.10797384 -0.003563002 -0.052749258

feature_extractor.6.bias f4 [120]
00000000: a0c2 8dbd de41 123c f5a9 cf3d 259f 19bd
00000010: b232 8cbd 3749 a8bd f920 09be c7dc bb3d
00000020: 4a06 ebbc 9877 f33d a622 833d 9124 acbd
00000030: 695d 13bd a8b7 e73b 9a64 8b3d f14c dfbc
00000040: 33c5 db3c 54a2 babd a700 913d 508d f6bd
00000050: 5d65 59bd 03cf a03d d5e9 87bb 24c4 113d
00000060: b23e 033e 468d 613d ec60 43bc fee5 613d
00000070: 761f 66bb 5366 c7bd b121 953d 0b46 a9bd
00000080: 195a a73d e21c ec3d 3d10 c23d 6510 9b3c
00000090: 0850 c6bd 926a b2bc 7206 9b3d 5221 cc3d
000000a0: 4e9a 4a3d 52b2 86bb 047c 98bd 7edb 08bd
000000b0: 399f ddbc 9b77 803d 22a6 ed3c 4617 2cbc
000000c0: dfde 02be 4bbd 83bd 2cd9 6d3d 8f80 cd3c
000000d0: 7bef 4bbc 723a 0e3e acb1 f9bc ebf3 7c3d
000000e0: 5337 e5bd 8d3b a6bd a927 15b9 acc1 6cbc
000000f0: 8ab8 d43d 36d7 203c 7e78 41bd 4dc7 9d3d
00000100: 8507 bcbc 6e4a 64bd 9bc1 2bbe f1cd f83d
00000110: da5f 36bc bf53 d9bd 5725 08bd 32f9 acbd
00000120: 21a1 bcbd 19d3 9ebb b8c4 18bc 131d 243d
00000130: 414f 15be 96a9 5ebd 1123 15bd e3a3 1239
00000140: cb8d 01bd 9b32 6fbd 2dad 28bc 4363 043d
00000150: 0120 abbb c6e6 e6bc 8dc5 16bd 0609 a8bd
00000160: 3867 2dbd 086e 06bd 9893 bbbd d625 f43d
00000170: b405 e83c 55f6 a83d f88f 963d 4aba 1c3c
00000180: f919 003d 3802 403d c40f f3bd 120e 9d3d
00000190: dd32 fabc 6b31 84bb 72a7 c13d c0ac 303d
000001a0: 42c9 22bd 4400 7e3d 8280 a23d 65a5 2dbe
000001b0: c31a 7abd 3041 743d 924a c73d 3371 403c
000001c0: 77db 1f3b e548 983d 8a84 04bd fbd7 38bd
000001d0: 96f8 473d 08ee 3b3d 9f7f 87bd 4ab3 fc3b
-0.069218874 0.008926837 0.101398386 -0.037505288 -0.06845607 -0.082170896 -0.13391484 0.09172969
-0.028689522 0.11888045 0.06403093 -0.08405412 -0.035977755 0.007071454 0.068062976 -0.027258368
0.02682743 -0.09112993 0.070802025 -0.12038672 -0.053075183 0.07851984 -0.004147748 0.035587445
0.12816885 0.05506637 -0.011924963 0.05515098 -0.0035113967 -0.09736314 0.07281817 -0.08265313
0.08171482 0.115289465 0.094757535 0.018928716 -0.096832335 -0.021779332 0.07569589 0.09967293
0.049463563 -0.004110613 -0.07445529 -0.03341245 -0.027053462 0.06272813 0.029009882 -0.010503596
-0.12780331 -0.06432589 0.05806844 0.025085716 -0.012447233 0.13889483 -0.030480228 0.061756056
-0.11192193 -0.08116827 -0.00014224522 -0.014450472 0.103867605 0.009816935 -0.04723405 0.07704029
-0.022952804 -0.055735044 -0.16773073 0.12148655 -0.011131251 -0.106116764 -0.033238735 -0.08445968
-0.092104204 -0.004846942 -0.009324245 0.04006679 -0.14581014 -0.05436095 -0.036410395 0.00013984698
-0.031629365 -0.05839787 -0.010295195 0.032321226 -0.005222321 -0.028186213 -0.036809493 -0.08204846
-0.042334765 -0.032819778 -0.09159011 0.11921279 0.028323032 0.08250109 0.073516786 0.009565899
0.03127477 0.046877116 -0.118682414 0.07668699 -0.030541832 -0.0040342114 0.09455766 0.043133497
-0.039742716 0.062011972 0.07934667 -0.16957624 -0.06106068 0.05963248 0.0973102 0.011745739
0.0024392286 0.074357785 -0.03235296 -0.04512785 0.048821054 0.0458813 -0.06616139 0.0077118026

classifier.0.weight f4 [84, 120]
00000000: 9400 19be 32cb 9fbd 4bfc dfbd 4694 92bd
00000010: 106e ff3d 135a 93bd 3981 fbbd e1a8 093e
00000020: c05c 50be 2d67 ba3d c029 babc e368 43be
00000030: 89f4 3fbe 7ef1 f43d 9275 debd 0bee 0f3e
00000040: eb22 febd 10c1 8abc 926d e5bd 73c3 84bd
00000050: 57fa 74bd 0904 27be 5626 dfbd d64f fa3d
00000060: 41ce bcbc fe21 dc3d f3c5 6e3d b9f9 f33d
00000070: 649b 833d 4d58 6f3e 635e 643d 33df 153e
00000080: 574a 98bd 7936 d5bb b040 063e 3c07 b2bd
00000090: 9e06 873c 6c84 1f3e a4be af3d 48f7 20be
000000a0: 3e90 003e ec4a 543e df7b c63d 7aa2 b43d
000000b0: 26ec 64bd c8b3 bdbd 15fc 96bc fd6f 6b3d
000000c0: 972c 3b3e 7aa6 8cbe 04f4 c6bd b135 513c
000000d0: 2fd1 c83d 5130 43bd 0f06 6d3d 0acd 523e
000000e0: b32d b63d 6290 d23c 9020 a8bc a69b 92bd
000000f0: 2d98 03be 3463 223d ff13 6e3d 845c 4abd
00000100: 5c0a ad3d 0099 7abb a4d8 db3c 8c1a 563d
00000110: 7eb3 b33e c472 2fbd 111a 4e3c 64c9 04be
00000120: 8661 cd3c 9457 4a3d d8e8 fd3d e95b 7fbc
00000130: e5eb 3a3d 2d78 3d3c eff3 923e 3931 a6bd
00000140: 1ac0 903d a992 26be 9a31 99bd b8ab 21bd
00000150: 0382 34be 79ea 493a f8e7 36bd ad74 5ebd
00000160: 7d05 093e 122d 3bbe 356b 7bbc bf30 c9bd
00000170: a9be 173e aa54 33be 5381 63be 9782 623d
00000180: b53b 6bbd 84e2 c1bd b168 863d dd08 9f3c
00000190: de2e 39be babf 4bbe 3ad1 9fbd 2f6d 193e
000001a0: 9aec 8fbd 9da8 ba3d a3de 14bc 5b28 a2be
000001b0: 033b 5bbe b780 1dbd 2180 a23d 6e27 6cbc
000001c0: fc07 ad3c cdc7 e9bc 6266 2c3e a931 f1bd
000001d0: a26b e9bd f77b 393d ed32 9d3d 4657 28bd
000001e0: 0959 e63c cccf 913d cfdc f33d bb85 66bd
000001f0: 8555 7e3a 3d91 17be 2568 cc3d 1255 78bd
00000200: f1ac 44bd c53d 283e 3bfc 873d c0d7 553b
00000210: 0f49 2e3e d9fc 033d a907 8ebd 74d9 5a3e
00000220: 18e0 aa3d c47e c9bd 8c78 3d3c 37e0 3bbc
00000230: 2450 243d 0a15 593e 0aa3 103e 6ad6 263e
00000240: 66e8 db3d afb8 7dbd ff9b 623e aa18 5b3e
00000250: 582f 2c3e 2732 06bc 09c6 213e ba0f d7bd
00000260: e390 cb3d 2439 103d 95c4 863e 349c bdbc
00000270: 2c20 59be 7986 4e3e 6dbd 40bd c9cb eabb
00000280: 3e6a 713c 4275 263e 198f 263d 3dd8 d93c
00000290: 84eb 28be 7bda 323c 88f9 373d 28bb a3bd
000002a0: 5335 8c3c 9458 f8bd 12c4 843d 209f b2bd
000002b0: ad2c 323d b0e0 09bd 6b24 e6bc c12e d63d
000002c0: cf07 51bd 4f98 213d 70d8 213e cd06 993d
000002d0: 4656 323d cc79 d93d 1aa7 07be a5b5 b53d
000002e0: 6532 c9bc 0fc3 a73d 4fae a6bd a053 673d
000002f0: 1bfb 443d 4709 00be bda3 023e 48c7 003e
00000300: acd4 633d c2de dcbd 5894 46bd fd50 163e
00000310: 5754 e439 3f11 353d 2fe4 11be b9fd 15be
00000320: b8f5 2cbe f4db 26be 9de3 debc b725 29be
00000330: ad67 903d e823 c4bd 5c87 833c 7b4e 8dbc
00000340: 1e04 ffbd 11b9 243e 01b2 87bd 0fc1 673d
00000350: 2131 4b3c b98b b03c ab61 a33d b494 413c
00000360: a535 bbbd 7b1c 3d3d ee06 f03d 1830 05be
00000370: 8101 173d 2d17 893c eb5f 89be b3a5 81bd
00000380: 9e53 67be d3de 3d3b e679 373e 088b 0dbe
00000390: 1113 49be 6a87 dabd f187 d1bc b898 efbd
000003a0: f42f c6bd ce16 ee3c e591 d8ba 2a58 a7b9
000003b0: 8a70 04bd 7cbc 95bd 6ced 06be b030 64be
000003c0: 76d4 fd3a 77eb 4f3c 17ac 933d 7d5f cbbd
000003d0: 7b80 883d 17b7 75be 602c 793c d44d 45be
000003e0: 116e e8bc 070b f03d bdd7 db3d 2217 5b3c
000003f0: e85e 423d dbb3 93bd 111a 9d3d 60c4 f03c
-0.14941627 -0.07802428 -0.10936793 -0.07157187 0.12472165 -0.07194915 -0.12280507 0.13443328
-0.20347881 0.091017105 -0.022724986 -0.1908298 -0.18745627 0.119601235 -0.108622685 0.1405565
-0.12409004 -0.016937762 -0.112025395 -0.064825915 -0.059809055 -0.16310133 -0.10895984 0.12222259
-0.023047568 0.10748671 0.058294248 0.11912865 0.06426123 0.23373528 0.055754077 0.14635925
-0.07436054 -0.006506738 0.13110614 -0.08692786 0.016482648 0.15577859 0.08581284 -0.1571933
0.12555024 0.20731705 0.09691595 0.088200524 -0.05588927 -0.09262806 -0.018430749 0.057479847
0.18278728 -0.27470762 -0.09714511 0.012769149 0.098055236 -0.0476535 0.057867106 0.20586029
0.08895435 0.025703613 -0.02052334 -0.07158594 -0.12851019 0.03964539 0.05812454 -0.049404636
0.084492415 -0.0038238168 0.0268367 0.05227141 0.3509788 -0.04283406 0.012579457 -0.1296745
0.025070917 0.049399927 0.12397927 -0.015585878 0.045635123 0.011564297 0.28701732 -0.08114857
0.070678905 -0.16266884 -0.07480164 -0.039470404 -0.1762772 0.00077024807 -0.044654816 -0.05431049
0.13381 -0.18278912 -0.015345384 -0.09823751 0.14818825 -0.17512766 -0.22217302 0.05530032
-0.057429988 -0.094670326 0.06562937 0.019413406 -0.18084285 -0.19897357 -0.07803579 0.14983056
-0.0702755 0.09114192 -0.009086284 -0.31671414 -0.2140923 -0.03845283 0.07934595 -0.014413698
0.021121971 -0.028537655 0.16835931 -0.1177705 -0.113974825 0.045284238 0.07675729 -0.041098855
0.028118627 0.07119712 0.1190735 -0.05627988 0.00097020745 -0.14801498 0.099808015 -0.060628004
-0.048016492 0.16429813 0.06639906 0.0032629818 0.17020057 0.032223556 -0.06935055 0.21372014
0.08343524 -0.09838632 0.011564385 -0.011467031 0.04011549 0.21199432 0.14124694 0.1629273
0.10737686 -0.061943706 0.2212982 0.21396127 0.16814935 -0.008190668 0.157982 -0.105010465
0.09939744 0.035210744 0.26321855 -0.023145773 -0.21203679 0.20168485 -0.04705565 -0.0071654064
0.014734803 0.16255668 0.040663812 0.026592368 -0.16496092 0.010916348 0.044915706 -0.079946816
0.01711527 -0.1212627 0.0648271 -0.08721757 0.043499637 -0.033661544 -0.028093537 0.10458136
-0.051032837 0.039451893 0.1580522 0.07472 0.043539308 0.10618934 -0.13247338 0.088725366
-0.024560163 0.08191501 -0.081387155 0.056476235 0.048091035 -0.12503539 0.12757774 0.1257602
0.05562274 -0.10784675 -0.048481315 0.14679332 0.00043550387 0.0442059 -0.14247201 -0.14647569
-0.1689061 -0.16294843 -0.027208144 -0.16518293 0.070510246 -0.09577161 0.016055755 -0.017249336
-0.12451957 0.16086222 -0.066257484 0.0565806 0.01240185 0.021551 0.07977613 0.011815239
-0.09141091 0.04616974 0.11720072 -0.13006628 0.03686667 0.016734684 -0.26830992 -0.06330433
-0.22590491 0.0028971925 0.17917594 -0.13822567 -0.1963618 -0.106703594 -0.025577517 -0.11699051
-0.09677115 0.029063608 -0.0016522972 -0.0003191841 -0.032333888 -0.07311341 -0.13176507 -0.22284198
0.0019365686 0.012690417 0.07210558 -0.09930322 0.06665131 -0.23995624 0.015208334 -0.1926797
-0.028372796 0.11720853 0.10734508 0.0133722145 0.04745379 -0.07212039 0.076709874 0.029390514

classifier.0.bias f4 [84]
00000000: 7e6e 363b e151 a3bc a235 153e afc4 5f3c
00000010: 792f 6bbd fb45 dd3d 6320 b8bd 4eba c13c
00000020: 7828 e33c f245 e03b 8e7b 8f3d f456 a23c
00000030: 4387 f7bc c7c9 de3d 6f05 923d faa8 a0bd
00000040: def4 993c 58c2 8e3c 95fc 92bd ee2c e53c
00000050: 554c 09bd 3e70 c6bd 811c 68bb 932c 003d
00000060: 295b 193c bff1 35bd 81e2 5f3d b160 40bd
00000070: 5d0b 2ebd 034a 113d 9244 90bd f63f 6bbc
00000080: 954a 343d b638 a33d 7bcb 123e 1754 23be
00000090: eaf7 d03d 587f af3d c25b 3a3c 09e4 2abd
000000a0: 5d52 a93c 293e d4bd 35b6 b9bd 9f68 b43d
000000b0: 0665 bebb bdc4 8cbd 4af4 bbbd 1cea 9e3c
000000c0: 6838 a3bd ecd3 8b3c 5428 9f3d 1282 203d
000000d0: 511d 8fbd 6588 cdbd fff7 193d 1ff0 5ebc
000000e0: cbd1 3abd a912 03bc 4dca 403d 602c 0b3d
000000f0: 3d50 173d 3d67 87bb 0c72 98bd 5971 38bd
00000100: 1ab1 7fbd 0898 49bc 5deb 8abc 8fdf 383d
00000110: 0683 943d 694e 113c 7c58 0c3d acd0 0bbe
00000120: 38b5 163d 5e01 633d 3b9b c53d 09d1 f7bd
00000130: 88a2 a9bd 2ff7 8ebc 4d58 8ebd 3637 013e
00000140: 8465 c7bd fc21 4dbd 958c 5bbd 0dbd ca3d
0.0027836855 -0.019936504 0.1457124 0.013657733 -0.05741832 0.10804363 -0.08990552 0.023648407
0.027729258 0.0068442756 0.07005988 0.019816853 -0.030215865 0.1087833 0.071299426 -0.0784473
0.01879352 0.017426655 -0.071770824 0.027975526 -0.03352006 -0.09689377 -0.003541738 0.03129251
0.009360113 -0.04442 0.05465937 -0.046967212 -0.042491306 0.035470974 -0.07044329 -0.014358511
0.04401644 0.07969801 0.14335434 -0.15950046 0.10203536 0.08569211 0.011374416 -0.041721378
0.020669157 -0.103634186 -0.09067956 0.088090174 -0.005810383 -0.06873462 -0.09177454 0.019398741
-0.07969743 0.017068826 0.07771364 0.039186545 -0.069880135 -0.10035781 0.037590023 -0.013607054
-0.04561023 -0.008000054 0.04706793 0.033977866 0.036941756 -0.00413218 -0.07443628 -0.04502997
-0.062424757 -0.0123043135 -0.016957933 0.045135077 0.07251553 0.008868792 0.034264073 -0.13653821
0.036793917 0.055421226 0.096487485 -0.12100417 -0.082829535 -0.01745185 -0.06950436 0.12618718
-0.097361594 -0.05008124 -0.053600866 0.0989934

classifier.2.weight f4 [10, 84]
00000000: 6994 39bd a81f 703e 829a 7f3e 664c 53be
00000010: 3f84 43be 78af d73c 26e1 7a3e b3df 953e
00000020: 44fa 07be f4d0 15be 2f47 73be f9ba a23d
00000030: bbab 653e 729d 8dbe 873c a73e c4a8 8e3c
00000040: f844 5ebd 1d16 1f3e f74d b23d b546 88be
00000050: 6ac3 7bbe 8420 923e b524 053e bd6a 133e
00000060: 581f 72be 53aa 21bd 4304 ffbd fc65 f33c
00000070: 872c c4bd 0b49 f63d 79d3 163d 173b b43e
00000080: 96f7 60bb 0812 d7bd dde5 b93d 7b9d 9a3d
00000090: e5c5 083e 507e 953d 99ec b73e ca34 b6bc
000000a0: 927f e13d 3198 433e bfb0 acbe fca5 c83e
000000b0: 0941 6d3e b905 9fbe 4105 19bd a03d abbe
000000c0: ca59 8e3d 19e9 57be d5a2 223e 158c 82be
000000d0: 6bb1 abbc 3da7 9dbe 2514 17be 792a 7ebd
000000e0: 4bce 93be e5b9 7abe 26d1 69ba 943e bbbe
000000f0: 313e d33e e0aa 45be 64ad 2cbe 1d35 e03c
00000100: 7c36 7dbe 5c8e 963e 6f13 db3d a36a 1b3e
00000110: 5d35 143e 4ca4 113e 7281 65be 4cc1 973e
00000120: 2a15 f3bd 5144 8dbd e006 b7be 612d a73e
00000130: b7fd 4e3e eb96 6e3e e5c0 dfbd 8c79 ccbe
00000140: 631e bc3e b853 ff3d f533 22be 51a0 473e
00000150: 68d3 88be ffee 6abe 720d 80be 040a 3a3e
00000160: 66d8 a53e 77ab 5a3e 3b44 43be 0908 30be
00000170: c9db e83d 5d15 2abe a0c3 413e 62dd 993e
00000180: 1d50 1bbe 663f c73d cd44 983e d339 b3bd
00000190: f902 5d3e a8c2 cd3d a0ac 91be c08c 923e
000001a0: bbf3 0e3e e851 4cbe 8009 87be 4c83 9bbe
000001b0: eb01 e53d 4987 9bbd d25e 493e 801e 95be
000001c0: 5933 703e 6183 c23e 7116 84be 7b1f 2abe
000001d0: 251a 84bd 2d9d b83e 3b56 dfbd b1b1 1cbd
000001e0: b1fd 8bbe 5c82 403e fabd 0d3d 494e 5bbc
000001f0: 5f39 3fbe 8037 7dbd 4126 53be 63ac b83e
00000200: 5e0e edbb a04c 2cbe 1462 d43e 930b 8dbe
00000210: c939 95be eba9 3b3e a6f3 80be bcc5 293e
00000220: 2e0c 423e 7406 fcbc 4155 bebe d58c e0be
00000230: 5709 e83d 0f57 033e 2b66 9fbe 1076 6f3e
00000240: 6845 d83d 1e3c 723e 8ece 683e de50 36be
00000250: c8ae 56be 2906 b2be 6b5d 93be fbb9 aabe
00000260: 9d57 27be c4ef 66be d082 093e a3b1 bcbe
00000270: eab9 853d dde8 aa3e cf2e 083e 546d babd
00000280: 496f 993e 251a 89bd bf2f 84be b84b 253e
00000290: 918e 31be ec7d 56b9 641a 4e3e e194 ec3e
000002a0: 68d8 27be 9a55 d2bd 2cb2 3e3e 6273 5fbe
000002b0: cf70 933e 3106 8a3d 9563 e73c 2c54 de3e
000002c0: a15e b83c fbb3 aa3d 14a7 a53e c60d 163d
000002d0: 38be 60be 1ace c7be 2b97 b63e 6407 123e
000002e0: 530d 03be 5c45 693e 51a3 2fbe 9175 28be
000002f0: 3d7d 4f3e 6f08 50be 6d95 833e 7e70 403e
00000300: 56c5 1cbe 3ea2 a1be fc58 51bc 5123 8fbe
00000310: f6d4 943e e57b 71be 54b1 5ebe 77e2 813d
00000320: bd2c 3bbc 4fce 90be 7c1a 223e bf0d f0bd
00000330: a09a d83d b05e 123e 386f cd3d df9a 4b3e
00000340: e06a a73e 2d9b 023e fef8 a8be e774 7a3e
00000350: 061f 56be 572e 9dbe 7a69 0ebe 1eb8 6c3e
00000360: 1e4a 733e d159 abbe 4bef 53be 4552 393e
00000370: f112 3e3e 2136 d63d c3b4 673e ba30 af3e
00000380: d861 3c3d 8dfa 8ebd 6dc2 8e3d c5db 7cbe
00000390: cc7c 9bbe a144 c43d 5236 efb8 cf02 8fbe
000003a0: 2584 8f3e b4b9 813e 9bd9 99be 5adb b03d
000003b0: 4fe1 383e fcd8 2e3d 724d 04be e58a dabb
000003c0: bd23 ed3d 2b16 3d3e e381 553e 9e3e 5fbe
000003d0: e91d aa3d 2c36 84be 805a 8b3e 9f3a 2e3e
000003e0: 8ee8 f7bd a2be 5fbc 3590 2b3e 47bb 5b3e
000003f0: 806b a5bc 9a47 6bbd 0209 81be 2319 43be
-0.04530755 0.23449576 0.24961284 -0.20634612 -0.19093417 0.026328787 0.2449995 0.2927223
-0.13279063 -0.1463049 -0.23757623 0.079458185 0.22428791 -0.27659184 0.32663366 0.017414458
-0.054264992 0.1553578 0.08706277 -0.26616445 -0.24586263 0.28540432 0.13002284 0.14396186
-0.23644769 -0.039469074 -0.12451985 0.029711716 -0.095788054 0.120256506 0.03682277 0.35201332
-0.003432726 -0.10501486 0.09077046 0.07549568 0.13356741 0.07299483 0.35922697 -0.022241969
0.1101066 0.19101025 -0.33728597 0.39189136 0.2316934 -0.31059054 -0.037358526 -0.33445454
0.0695072 -0.21085013 0.15882428 -0.254975 -0.020958623 -0.30791655 -0.14753778 -0.062052224
-0.28868327 -0.24484976 -0.000891941 -0.3657118 0.41258386 -0.19303465 -0.16863018 0.027369076
-0.24727815 0.29405487 0.10697066 0.15177397 0.14473481 0.1422283 -0.2241266 0.2963966
-0.11869271 -0.06897796 -0.35747433 0.3265181 0.20213972 0.23299758 -0.109254636 -0.39936483
0.36741933 0.1246714 -0.15840133 0.1949475 -0.2672379 -0.22942732 -0.25010258 0.18167883
0.3239166 0.21354471 -0.19068997 -0.17190565 0.11370046 -0.16609712 0.18922281 0.30051714
-0.1516728 0.09728889 0.2973999 -0.087512635 0.21583165 0.10046893 -0.28452015 0.2862301
0.13960163 -0.1995312 -0.26374435 -0.3037361 0.111820064 -0.07594163 0.19665077 -0.29124832
0.23457088 0.3799086 -0.2579837 -0.16613571 -0.06450299 0.36057416 -0.10905119 -0.038255397
-0.2734199 0.18799728 0.034605004 -0.013385364 -0.18674229 -0.061820507 -0.20620061 0.3606902
-0.0072343787 -0.16826105 0.41481078 -0.27547893 -0.2914565 0.18326537 -0.2518589 0.16579336
0.18949959 -0.030764796 -0.3717442 -0.43857446 0.113299064 0.12826179 -0.31132635 0.23384881
0.10560113 0.23655745 0.22735044 -0.17804286 -0.20965111 -0.34770325 -0.2878221 -0.33345017
-0.16342016 -0.22552401 0.13428807 -0.36854276 0.06529601 0.33380786 0.13299106 -0.09102884
0.29967716 -0.0669444 -0.25817677 0.16142166 -0.17339541 -0.0002045554 0.20127255 0.46207336
-0.16391146 -0.102702335 0.18622655 -0.21821359 0.28797004 0.06739462 0.028245727 0.43423593
0.02250606 0.0833511 0.32354033 0.03663423 -0.21947563 -0.3902443 0.35662207 0.14260632
-0.12798052 0.22780365 -0.17152144 -0.16451098 0.20262618 -0.20315717 0.2569994 0.18792912
-0.15309653 -0.31569093 -0.012777563 -0.27956632 0.29068726 -0.23582418 -0.21747333 0.06342023
-0.011424241 -0.282824 0.15830415 -0.11721372 0.105763674 0.14293933 0.10030979 0.19883297
0.32698727 0.12754507 -0.33002466 0.24458657 -0.20910272 -0.30699417 -0.13907424 0.2311711
0.23758742 -0.33466962 -0.20696752 0.1809779 0.18561913 0.10459543 0.22627549 0.34216863
0.04599175 -0.069813825 0.069706775 -0.2469321 -0.3036865 0.095834024 -0.00011406526 -0.2793183
0.28030506 0.25336993 -0.30048832 0.08635588 0.18054698 0.0426874 -0.12920168 -0.0066693895
0.11579082 0.18465488 0.20850329 -0.2180123 0.08306486 -0.2582258 0.27217484 0.1701455
-0.12104903 -0.01365629 0.1675423 0.2145816 -0.020192862 -0.05744133 -0.25202185 -0.19052558

classifier.2.bias f4 [10]
00000000: 7a59 cdbd 9915 973d bc83 333e 51ea a9bd
00000010: 7ee4 68bd 3fda 34bd d64f dfbc c406 ba3d
00000020: a103 ddbd 25f0 b5bd
-0.10026832 0.07377166 0.17530721 -0.082966454 -0.056858532 -0.04415345 -0.027259748 0.09083322
-0.10791708 -0.088836946
