02_code_organisation/final_exercise/cookiecutter project/src/models/model.pth (torch, 177875 bytes, 10 tensors)

feature_extractor.0.weight f4 [6, 1, 4, 4]
000000 0b 7c 1d be c1 cd a2 be eb c1 52 be fa b5 58 bd
       -0.1537935 -0.31797603 -0.20581786 -0.05290792
000010 68 1e aa 3d 31 d3 19 3d a2 a2 c9 3e 5d 98 04 3f
       0.08306581 0.037554923 0.3938189 0.5179499
000020 8d 04 0c 3d d2 4e 31 3e 13 ad ae 3e 8d 5b e6 3e
       0.034184027 0.17315224 0.3411642 0.44991723
000030 c2 c0 d2 be c8 79 2d 3d 20 9c fe 3e 17 4b 63 3e
       -0.41162688 0.042352468 0.4972849 0.22196613
000040 48 06 d3 3e 65 ca 08 3f 31 7c eb 3e ae 39 32 3e
       0.4121573 0.5343383 0.45993188 0.17404816
000050 c7 6b c6 3e 76 a4 b3 3e 6f df ab be ce b1 3d be
       0.38754103 0.3508641 -0.33568904 -0.18524858
000060 6d 06 b0 3e fb c5 68 be 24 19 be be 1d 1a 98 be
       0.34379902 -0.22731774 -0.37128556 -0.29707423
000070 08 37 b9 bd fd b5 b8 be c4 95 f2 be e5 4a 23 bf
       -0.090436995 -0.36076346 -0.47379887 -0.63786155
000080 c1 36 d8 be f4 56 78 3c 32 ad 92 3e 79 0f ca 3e
       -0.42229274 0.01515745 0.28647763 0.3946493
000090 1a 30 5d 3d 26 10 03 3f ae 48 ff 3e 48 d2 d3 3e
       0.05400095 0.51196516 0.49860138 0.4137137
0000a0 3d f7 b2 be ed 06 b8 3e 7a e6 6b 3e 2d 59 f8 3d
       -0.34954253 0.35942784 0.23037139 0.12126384
0000b0 88 ce e3 be 82 42 30 be 8b cc a7 be c1 b7 aa be
       -0.44493508 -0.1721287 -0.3277324 -0.33343318
0000c0 2e 5f 8c 3e 2b 77 13 be f7 14 85 3d fe 96 45 be
       0.27416366 -0.14400928 0.06498139 -0.1929588
0000d0 e1 59 a7 3d 6d 62 ad 3e 06 21 81 be e3 1b de be
       0.0817144 0.33864155 -0.25220507 -0.4338065
0000e0 72 d2 9e bb 86 f3 39 3e c8 f4 27 bf d7 24 cf be
       -0.0048468644 0.18159303 -0.6560788 -0.40457794
0000f0 96 2e ad 3c a9 16 a9 be a3 b6 06 bf e8 5b c3 3e
       0.021140378 -0.330251 -0.5262243 0.38156056
000100 de e2 00 3f 06 c6 34 bd b3 75 a5 3e 6e e1 a5 3e
       0.5034617 -0.044134162 0.3231636 0.32398552
000110 70 81 6b be 1b e8 53 be 73 22 db be 4f e6 63 3d
       -0.22998595 -0.2069401 -0.4279972 0.05563956
000120 3e 4e 9e be 92 63 ba be 5f f0 f0 be 11 b4 1b be
       -0.3091907 -0.3640409 -0.4705839 -0.15205409
000130 0d 20 75 3d 26 ef ec be 54 a9 af be 95 67 c1 3e
       0.05984502 -0.46276206 -0.34308875 0.3777434
000140 d0 d0 17 3e ce 59 51 be 89 54 14 bf 6d 93 c2 be
       0.1482575 -0.20444414 -0.5794149 -0.38003102
000150 a1 a1 7d 3e b2 60 bd be bc cd af be 13 ab d2 be
       0.24768688 -0.36987835 -0.3433665 -0.41146144
000160 2a 92 8d 3d b2 24 88 be 76 a5 5a bd e7 a0 aa 3e
       0.06912644 -0.26590496 -0.053380452 0.33325884
000170 a7 69 c4 3e 9d b7 3f 3e c1 43 9f 3e a9 5e 20 3f
       0.38361856 0.18722387 0.3110638 0.6264444

feature_extractor.0.bias f4 [6]
000000 b4 1a 29 3f 18 35 92 3e 00 b7 a0 3e 30 bc 0f 3f
       0.6605637 0.28556132 0.31389618 0.56146526
000010 ae 59 07 bf d0 dc 93 be
       -0.52871215 -0.28879404

feature_extractor.3.weight f4 [16, 6, 4, 4]
000000 14 99 11 bd 6b 90 a5 be c2 57 85 be ba 63 b0 be
       -0.035546377 -0.32336745 -0.26043516 -0.34451085
000010 b7 6a 49 3e 8f c0 99 3d f3 7c 21 3d de 9b 06 be
       0.19669615 0.07507431 0.0394258 -0.13145396
000020 46 a7 22 3d cc e1 bf 3e 86 81 b3 3e f5 7d b8 3e
       0.039710306 0.37476957 0.35059756 0.36033598
000030 d9 d5 2a 3d c6 e3 80 3d a9 6a 55 3d 44 28 c2 3e
       0.041707847 0.06293444 0.052103672 0.37921345
000040 73 9b 89 bd 44 16 42 3e e7 b7 9b 3d a9 57 8a 3e
       -0.06719103 0.18953806 0.07603436 0.27020004
000050 e8 12 b7 be df 83 30 be 5a 73 69 be e5 33 3e be
       -0.35756612 -0.17237805 -0.2279791 -0.18574484
000060 76 00 9c 3e dc c7 36 3e 0c 62 ee 3c 2a 3c 26 bd
       0.30469102 0.17849678 0.029099487 -0.04058472
000070 ed a6 00 3e b7 8b d1 3e 56 28 b5 3e 29 47 83 bc
       0.12563677 0.40926906 0.35382336 -0.016025143
000080 ae 86 30 3e d1 e9 bc bd af 1e 5f be f8 f0 95 bc
       0.17238876 -0.092242844 -0.21789049 -0.01830338
000090 64 eb 4c 3e f3 36 db bd 65 a9 e8 bd 61 ad 94 be
       0.2001167 -0.1070384 -0.113604344 -0.29038528
0000a0 7f 11 9e 3e c1 80 9c 3e f4 bc 15 3e 3f 9f 6d 3d
       0.30872723 0.3056698 0.14622861 0.058013197
0000b0 96 94 25 be 84 91 70 bd 21 ea 72 3e 67 aa d8 3e
       -0.16169962 -0.058732525 0.23722126 0.42317507
0000c0 26 33 93 be 9b 72 8b 3d f1 33 1a 3e a7 8a d7 3d
       -0.2874996 0.06808969 0.15058877 0.10524493
0000d0 e5 d5 57 be f5 fe 79 bd 4a 21 3a be 7d 5b 1d 3d
       -0.21077688 -0.06103416 -0.18176761 0.03841733
0000e0 86 62 48 be 56 05 ac bd b9 93 29 be da ee cf bd
       -0.19568834 -0.08399455 -0.16560258 -0.10152979
0000f0 38 9c 93 3c 00 aa 0e 3d 33 4e d7 bd be fc 16 bd
       0.018018827 0.034830093 -0.10512962 -0.036862127
000100 a2 79 ed 3c f4 82 31 3e f3 81 a4 3e 88 25 a9 3e
       0.028988663 0.17335111 0.32130393 0.33036447
000110 67 12 38 be f2 71 d9 bd b9 80 88 be 28 f0 94 bd
       -0.1797577 -0.106174365 -0.26660708 -0.07272369
000120 82 f4 eb bb fe 76 f0 bd 99 e1 92 be db 6e 88 be
       -0.0072007785 -0.11741446 -0.28687742 -0.26647076
000130 ee 37 cf 3d 6e 48 9c bb ec 0b 06 3c f3 9e 94 bd
       0.101180896 -0.0047693765 0.008181553 -0.0725688
000140 19 ff 24 be 91 f5 e9 3d 72 3d c4 3d 52 76 d4 bd
       -0.16112937 0.11423791 0.09582032 -0.1037413
000150 ad 00 7b bd fb f6 61 3e 01 71 a1 3e 8c 18 ce 3e
       -0.06127994 0.22066872 0.31531528 0.40253103
000160 dd 77 a5 be 78 ea 7d be bc 5f 6a bb 70 ba 08 3e
       -0.3231801 -0.24796474 -0.0035762629 0.1335237
000170 72 4f 31 bd 35 3a 28 be 0a 78 a3 be fa 9b 91 be
       -0.043288656 -0.16428454 -0.3192752 -0.28439313
000180 79 2c 53 3e 4a 9f 16 3c ad 2d 5c 3e 3a b0 05 3e
       0.20622434 0.009193251 0.21501799 0.13055506
000190 d2 9f 19 be 1f 22 c1 3c 33 78 97 bc 5f a2 10 3e
       -0.15002373 0.02357584 -0.018489933 0.1412444
0001a0 5d 6c 10 3d 44 86 dd bd 9a d9 bf be cb 87 05 be
       0.035259593 -0.10816625 -0.37470704 -0.13040082
0001b0 a1 88 89 bb 33 23 26 3e c2 77 15 bd 2a f2 17 be
       -0.0041971956 0.16224365 -0.036491163 -0.14838472
0001c0 f1 28 46 3e 2b 3c 64 3e 72 94 f9 bd fa ec 6c be
       0.19351555 0.22288577 -0.12186517 -0.23137274
0001d0 cd 60 ec 3e 17 93 10 bc 68 1c 29 3d eb e2 7b bd
       0.46167603 -0.008824131 0.041286856 -0.061495703
0001e0 05 d5 1e 3e 7b 92 6d bd a8 43 45 3e 09 e4 60 3e
       0.15510948 -0.058001023 0.1926409 0.21961989
0001f0 b0 1b a0 3d 31 7f a8 bd 83 e0 8f 3c b2 13 32 be
       0.07817781 -0.08227385 0.01756311 -0.17390326
000200 00 d2 0b 3e c6 05 ca bd 26 82 45 3e e9 99 41 3d
       0.13654327 -0.098643824 0.19287929 0.04726592
000210 f5 67 a5 bd 94 44 7e be d3 0f e7 3d c3 95 01 3e
       -0.08076469 -0.24830848 0.11282315 0.12654786
000220 f7 d1 a7 bd d2 89 09 be 51 50 93 be e2 7e b5 bd
       -0.081943445 -0.1343148 -0.28772214 -0.088620916
000230 ad 5a cc 3c 06 19 83 bd 48 35 92 be 6f 32 85 be
       0.024945581 -0.06401257 -0.28556275 -0.2601504
000240 06 2b ad 3d 43 b0 91 3e cb fe 88 3d 97 8b 74 bd
       0.08455472 0.2845479 0.06689223 -0.059703436
000250 33 17 d3 3e 7b 36 5d 3e 22 2f 38 3e d2 bf e5 bc
       0.41228637 0.21602814 0.1798673 -0.028045569
000260 83 2e be 3e d8 5e ab 3e 4f 6e 8f 3e 17 2b 24 3e
       0.3714486 0.33470798 0.28013846 0.16032062
000270 b9 07 81 3e 77 6b d3 3d de 86 30 3d 70 e7 8d 3d
       0.25201204 0.10323232 0.04309737 0.06928909
000280 3c 0c 94 be 05 d8 ce 3d 60 67 71 3c e1 74 4b be
       -0.28915584 0.10099796 0.014734119 -0.19868805
000290 37 c9 f1 bd ef 6c 8a bd d9 4a ee bc a1 91 83 be
       -0.11805957 -0.06759059 -0.029088425 -0.25697044
0002a0 92 4e 03 be eb 52 6c bd dc e1 cb 3e 79 30 78 3e
       -0.12822941 -0.057696264 0.39820755 0.24237241
0002b0 d2 c0 9b be 12 65 b0 bd e6 d0 94 b9 74 c5 8b 3d
       -0.30420548 -0.08613028 -0.000283844 0.068247706
0002c0 aa 4a 85 be 02 05 f1 bd 7b 13 b9 bd 23 35 79 3d
       -0.26033527 -0.11768533 -0.09036919 0.06084169
0002d0 d8 91 52 3e 28 a6 8c 3e 69 ea e0 bb 02 14 0f be
       0.20563447 0.27470517 -0.0068638814 -0.13972476
0002e0 81 46 83 3e 2a 9c dc 3c 34 30 f0 bc 38 15 a9 be
       0.25639728 0.026929934 -0.02931986 -0.33024
0002f0 3d d5 7f 3c 99 aa 8f 3d f2 1d 00 3f 54 59 85 3e
       0.015614805 0.07014961 0.5004569 0.26044714
000300 bc f6 51 3e 86 a1 3f bc 0f 32 86 3d 8b 41 45 be
       0.20504278 -0.011696225 0.06552517 -0.19263284
000310 9a 6e 4e 3e 5b 9e 2d 3e 09 b6 2b 3e cf d2 51 bd
       0.20159379 0.16954939 0.1676866 -0.051226433
000320 d9 c3 b6 be d1 be d2 be ff 07 0f be b4 4f 13 be
       -0.35696295 -0.41161206 -0.13967894 -0.14385873
000330 d3 91 a0 3d 43 02 ab be 41 06 d6 be 9e db bc be
       0.07840314 -0.33400163 -0.41801646 -0.36886305
000340 e9 e6 e5 bd f3 8f 64 bd 64 77 ec 3d 74 9a 6a 3e
       -0.11225683 -0.055801343 0.115462095 0.22910482
000350 4b 0c 27 3e 4a 36 aa 3e 9f 2c 04 3e ed 6c ff 3d
       0.16313283 0.33244544 0.12907647 0.12471948
000360 f4 00 51 3e d0 d9 5e 3e 91 be 7a 3e 91 60 f4 3e
       0.2041052 0.21762776 0.24486758 0.47729924
000370 f1 cc 9a be 1e 10 63 be e3 40 72 be a0 0e 6d 3e
       -0.30234483 -0.22174117 -0.23657565 0.2315011
000380 23 e9 84 3d bb b9 ea 3d b8 83 21 bd 9a d5 6e bd
       0.0648978 0.114612065 -0.039432257 -0.058309175
000390 cc bd ab 3e b4 2b b2 3e e1 48 80 3e a9 a3 a0 bd
       0.3354324 0.34798968 0.25055602 -0.07843716
0003a0 e8 aa 22 be c4 84 56 be 73 5c 3b 3e 7c 83 41 bc
       -0.15885508 -0.20949084 0.18296985 -0.0118111335
0003b0 8b 37 72 be 61 0e de be 99 20 8d be 81 be 54 be
       -0.23654 -0.43370345 -0.27563933 -0.20775796
0003c0 82 65 30 bd 0e ed 80 bd 4c f9 b7 bd 58 2f 6c bd
       -0.043065555 -0.062952146 -0.089830965 -0.057662338
0003d0 07 94 28 bd 3e 37 c4 bd 30 7e 89 bd ef 75 e4 bd
       -0.041156795 -0.09580849 -0.067135215 -0.111553065
0003e0 48 23 e8 3d 5c f9 d4 3d b8 aa 0e be 2d cc 33 be
       0.11334854 0.10399124 -0.13932312 -0.17558356
0003f0 56 97 13 be 02 c2 c9 bd a2 f8 6f bd e6 88 bd bd
       -0.14413199 -0.09851457 -0.058586724 -0.09254627

feature_extractor.3.bias f4 [16]
000000 67 db 5a be 93 1d 9c 3d 02 e9 d3 3d a7 49 d1 bd
       -0.21372758 0.07622828 0.10347177 -0.10219126
000010 e2 8f e6 3d dd 5f 30 bd a0 ca 1f be c1 69 a8 be
       0.11257912 -0.043060172 -0.15604639 -0.32893184
000020 76 42 4e be 86 cc 8c bc da 99 03 3e 0f 10 56 3e
       -0.2014254 -0.017187368 0.12851658 0.20904563
000030 27 e1 95 3d 47 fd d1 bd d8 b7 f6 3d 50 f4 1b 3e
       0.07318335 -0.10253387 0.12046784 0.15229917

feature_extractor.6.weight f4 [120, 16, 4, 4]
000000 fa de a3 bd 88 9d 9e 3d 86 9d 66 3e 4c 55 05 3e
       -0.08001514 0.077448905 0.22521028 0.1302082
000010 79 95 41 bd 77 1e ae 3d df f3 a3 bd ed 75 4e bd
       -0.04726169 0.085019045 -0.08005499 -0.05040543
000020 00 f8 86 3d 9c 13 ac 3d 77 95 b0 bd d1 6f b0 bd
       0.06590271 0.08402178 -0.08622258 -0.08615077
000030 13 69 79 3e 3a f1 d3 bd 32 f5 37 bc 8b 04 27 be
       0.24356489 -0.10348745 -0.011227893 -0.16310327
000040 f1 f8 a8 3d dc 8a 7b 3e 0f e3 80 bb d3 3a 1c be
       0.08250607 0.2456469 -0.0039333175 -0.15256815
000050 50 1b f8 3d fe 27 b2 3c a3 0a 93 3e ea 19 4a ba
       0.121145844 0.021747585 0.28719053 -0.000770955
000060 13 fb de bc 9b 74 14 3e 54 0d e3 bd 60 f7 7d 3d
       -0.02721933 0.14497606 -0.110865265 0.062003493
000070 4b 16 10 be 42 3b 6a bc fe 18 17 be fc 8e 43 3d
       -0.14071004 -0.014296355 -0.14755628 0.047743782
000080 dc 8c 28 bd cc a7 5b be c1 c0 51 be 18 fc 40 be
       -0.04114996 -0.21450728 -0.20483686 -0.18846166
000090 bf 15 82 3e 25 54 ad 3d 75 ed df be f2 31 dd 3d
       0.25407216 0.08463315 -0.43735853 0.10800542
0000a0 51 7a e5 3d dd 25 2a bd 65 c9 6b 3e 27 6c 9a 3d
       0.11204971 -0.041540015 0.23026045 0.0754016
0000b0 7d d5 09 bd fb 37 de bd 52 e0 f5 3d f0 27 62 ba
       -0.033650864 -0.10850521 0.12005676 -0.0008627167
0000c0 dd 93 87 bd e4 ac fe 3c 23 66 41 be ec 7a fa bc
       -0.066199996 0.0310883 -0.18886618 -0.030576192
0000d0 bf 96 c0 3c 4c 91 50 bd c9 7c 98 3d 80 f8 81 3c
       0.023509381 -0.050919816 0.07445676 0.015865564
0000e0 3f c5 9d be 97 40 34 3e be 92 61 be 21 e8 77 3d
       -0.3081455 0.17602764 -0.22028634 0.06052411
0000f0 2a cb 14 3d e4 03 cc 3e 0f e7 01 3e 7b e7 0d 3d
       0.036326565 0.39846718 0.12685798 0.034644585
000100 96 0a 68 3d de e9 13 be 2d 53 8b be 1a 20 86 3b
       0.05665072 -0.14444682 -0.27211896 0.0040931823
000110 8e d9 a6 bd 0f ba f3 bd d1 5e 8a be b3 ab 43 bd
       -0.08146964 -0.11900722 -0.27025464 -0.047771167
000120 30 b7 17 3e da 3c 80 bd 06 2b a6 3d 39 6b 14 3d
       0.14815974 -0.062616065 0.08113675 0.036235068
000130 49 59 5c 3d ad c1 f9 3d 9c 6e 8e bd b8 ac b3 bb
       0.053796086 0.12195144 -0.06954691 -0.005483236
000140 f6 22 1d 3e 82 22 9c 3d 87 8b bb 3d e8 d1 39 3d
       0.15345368 0.07623769 0.09157472 0.045366198
000150 c2 36 6b 3c b4 0f b2 bd 77 50 84 3d 82 ce 4d 3d
       0.014356317 -0.086944014 0.0646066 0.05024577
000160 ef a7 2a bc c4 ae 8f bd 61 57 10 bd b6 d4 a3 bd
       -0.010416015 -0.07015756 -0.03523958 -0.07999556
000170 51 ea c0 bd 05 58 3c be 2d 6c 03 be 6b 11 c8 bc
       -0.09419692 -0.18392952 -0.12834235 -0.024422368
000180 fb e7 41 3c bf 3b ae be 4a 3c 98 be 5d 55 6b be
       0.011835094 -0.34029958 -0.29733497 -0.22981782
000190 f7 7e a9 be b0 fb 2e be 8a ae 18 be 06 2e c0 bd
       -0.3310468 -0.17088199 -0.14910331 -0.09383778
0001a0 68 16 79 3e 4e ba 9b bd a9 62 22 be 0b 83 4c 3d
       0.24324954 -0.07603894 -0.15857948 0.04992966
0001b0 4c ab 05 3f 6d 2c d1 3e 85 4d 68 be 70 a3 6b 3b
       0.52214503 0.40854207 -0.22685821 0.003595557
0001c0 d7 95 7a 3d 58 3e f1 3d f6 9d 4c 3d 5d 9a 56 3d
       0.061178055 0.11779469 0.04995533 0.052393306
0001d0 de 10 0b bd df 77 a5 be 67 67 1a be e3 e8 29 3e
       -0.033951633 -0.32318017 -0.15078507 0.16592745
0001e0 a0 39 b1 bd 33 75 80 bd b7 f5 39 3e 02 15 f9 bc
       -0.08653569 -0.06272354 0.18160139 -0.030405525
0001f0 b2 39 0f 3d 22 82 b7 bd 22 97 86 bd ac 75 ae 3d
       0.034967132 -0.08960368 -0.06571795 0.08518538
000200 3e 37 54 3e 93 9f 35 3e 0d 3e 0c 3e b9 87 01 3e
       0.20724198 0.17736654 0.13695545 0.1264943
000210 ab 06 b2 bd 5e af b5 bd 41 b0 ca 3d 4b f6 0a 3e
       -0.08692678 -0.08871339 0.09896899 0.13570516
000220 79 9a 11 be f3 fa c3 bc da ed 29 3e ae 2d 70 bd
       -0.14219083 -0.023923373 0.1659464 -0.058637314
000230 a5 79 b1 be d9 51 b4 bc 59 79 a7 be 98 00 5d 3d
       -0.3466312 -0.022011684 -0.32709768 0.053955644
000240 64 83 02 3e 93 9d 4c bc 33 c6 b5 bc 61 a1 ad 3c
       0.12745434 -0.0124887405 -0.022189235 0.021195116
000250 0b 32 ca 3b fc 7c 57 3e a5 82 cb 3e b2 8b 18 bd
       0.0061705164 0.21043772 0.3974811 -0.0372426
000260 71 be 12 bd 07 b4 dd be 9c 7c 4c 3e 00 00 57 bd
       -0.03582615 -0.43301412 0.1996941 -0.052490234
000270 03 8a 88 3e 1c 6a dc bc 56 60 24 bc 7c f5 69 bd
       0.26667795 -0.026906066 -0.010032734 -0.057118878
000280 ac fc f3 3b fb 79 fc bd d5 0f 68 be e7 bd 2e be
       0.0074458923 -0.123279534 -0.2266229 -0.1706463
000290 b1 cb 27 be 99 54 30 bc 03 14 e0 3c 68 22 28 bd
       -0.16386296 -0.010762357 0.027353292 -0.041048437
0002a0 f0 3a 1d be 14 74 42 be b9 22 68 3e a0 b6 13 ba
       -0.15354514 -0.18989593 0.22669496 -0.0005634818
0002b0 96 98 c2 bd a6 e4 bb 3d eb d5 e3 bd d4 6a c5 3d
       -0.0950176 0.091744706 -0.11124786 0.096395165
0002c0 57 27 e1 bd 4e 48 12 ba 8a 38 7b be 31 87 8c be
       -0.109938316 -0.0005580232 -0.24533287 -0.27446893
0002d0 23 84 b1 3c 7c 4a ad 3d 9a 02 0e be 08 72 53 be
       0.021669453 0.084614724 -0.1386818 -0.20648968
0002e0 77 63 88 bc b8 ed 33 3e 1d 02 46 3d 35 78 1f bd
       -0.016648991 0.17571151 0.04834186 -0.038932998
0002f0 70 d6 93 3d 87 16 84 3e e2 79 82 bd 3d bd 88 bd
       0.07218635 0.25798437 -0.063709036 -0.06676719
000300 73 0c 8e bd 72 d6 d0 3d d7 ed 0c 3e 4f 60 c7 bd
       -0.06935968 0.10197152 0.13762604 -0.09735166
000310 e6 f3 84 3c 2f dd b2 3e 2a 88 e5 3e c1 a6 6d 3d
       0.016229581 0.34934375 0.44830447 0.058020357
000320 bd 9d 9f bd 8f 54 90 3c 67 34 16 3c 2e b2 01 be
       -0.07793758 0.017618446 0.009167767 -0.12665626
000330 42 58 d6 3c 73 34 0c be 02 90 f6 3d 7f d0 be 3c
       0.026165131 -0.13691883 0.12039186 0.023292778
000340 3e 5c 29 bd 78 1d e0 bc 2d ac e7 3d 4a 74 09 3e
       -0.041347735 -0.027357802 0.11312137 0.13423267
000350 50 5a ed 3d 09 aa ad bc 0f 38 66 be c6 6c 17 bc
       0.11589491 -0.021199243 -0.22482322 -0.009242242
000360 91 d8 91 be c5 41 3d 3e a5 8d aa 3d ca 61 76 bd
       -0.2848554 0.1848212 0.08327798 -0.060151853
000370 30 54 dd bd a9 22 68 be 69 b0 ac bd e6 e1 9b bd
       -0.10807073 -0.22669472 -0.08432085 -0.07611446
000380 b4 21 0f 3d 1f 16 9e 3d b2 f0 b5 3c 80 56 11 3c
       0.03494425 0.07719063 0.022209499 0.008870721
000390 4f 63 eb 3d b9 18 f7 3c 00 36 08 3e 43 d9 7c be
       0.11493551 0.030163156 0.1330185 -0.24692254
0003a0 53 e5 cf 3d f1 92 8f bd d5 68 bd bd b6 7d 2d bc
       0.10151162 -0.07010449 -0.09248511 -0.010589054
0003b0 52 8c c7 3d d7 5a 2e 3e 92 58 94 3e 99 c6 66 bd
       0.09743561 0.1702684 0.28973824 -0.05634174
0003c0 da 7b 25 bd 3a af 94 3c dc 3d d6 3c 1b 20 8c bd
       -0.040401317 0.01814996 0.026152544 -0.06842061
0003d0 b7 13 14 be 4c cf 0a be 71 e1 64 3d 2c 3d 01 be
       -0.14460646 -0.1355564 0.05587906 -0.12620991
0003e0 0f 0a 19 3d 95 ed 85 be db a8 63 be e4 fc 07 3e
       0.03736311 -0.26157823 -0.22232382 0.13280064
0003f0 bc 9b a6 3e 5a 3c 8c 3e 9a 52 9c 3c d6 d1 08 3e
       0.3254069 0.27389795 0.019082356 0.13361296

feature_extractor.6.bias f4 [120]
000000 0d 1a 4a bc f1 bd 31 3d e1 a8 91 bc 74 48 23 be
       -0.012335313 0.043394033 -0.017780723 -0.15945607
000010 15 d3 5f 3d d4 38 17 be 8b 16 c4 bb cd a2 1b bd
       0.054644663 -0.14767772 -0.0059841326 -0.037997056
000020 d2 52 c9 bc 67 0b 21 3d 5d a6 da bd 0e a5 dd 3c
       -0.024575625 0.039317515 -0.106762625 0.027056243
000030 43 79 11 be ec 6e 2c ba ba 1f 95 bd 68 d6 fb bd
       -0.14206414 -0.0006577808 -0.07281442 -0.12296754
000040 2c c0 68 bc 16 52 32 be 81 d3 2a ba d2 75 c7 bd
       -0.014205974 -0.17414126 -0.0006516502 -0.09739269
000050 60 ec 44 3d bd d8 30 be ba f2 dd 3d 80 2d 93 3c
       0.048076987 -0.17270179 0.10837312 0.017966032
000060 04 6c d3 3d 62 19 af bd 10 b6 97 ba fe f3 31 bd
       0.10323337 -0.08549763 -0.0011574645 -0.04344558
000070 cf 78 b3 bd d3 a7 a0 3d ac d4 84 bd 3d 4e 25 3d
       -0.08763277 0.0784451 -0.064858764 0.040357817
000080 e2 6a a2 bd 0c 08 b7 bc 17 23 1a 3e 9f 1f 85 bd
       -0.079305425 -0.022342704 0.15052448 -0.06500172
000090 8e aa 0e 3e 6f 8c 3b 3d 70 68 9a 3d 6a 3f 22 3d
       0.13932249 0.045788225 0.07539451 0.039611258
0000a0 f4 53 20 bd 18 e8 23 3d 28 33 91 bc a3 3b 9a 3c
       -0.039142564 0.040016264 -0.017724589 0.018827265
0000b0 39 05 9a 3c 8a a8 e3 3c ae d1 a9 bb 04 88 f2 bd
       0.018801318 0.027790327 -0.0051824665 -0.11842349
0000c0 7c cb 35 be cc 06 2a 3c 42 ff ac 3d 5f 77 13 3d
       -0.17753404 0.010377597 0.08447124 0.036002513
0000d0 06 d6 68 3e f6 14 ba 3d eb b4 03 be 49 7c 09 be
       0.22737893 0.09086029 -0.12861983 -0.13426317
0000e0 74 0c 21 3d 38 24 a0 3d 56 c8 3a 3c 1e ab 0e 3e
       0.039318517 0.07819408 0.011400303 0.13932464
0000f0 82 fe ba 3d 44 b2 63 bd f9 af 64 bc 7f 47 91 3d
       0.09130575 -0.05558993 -0.013957971 0.07093715
000100 b3 1f 5a bc d3 49 8a 3c 00 65 ed bc c8 ec af bc
       -0.013313222 0.016880905 -0.028978825 -0.02147521
000110 14 d9 ab 3c c9 49 40 3d 32 1e 8f bd 25 61 dc 3c
       0.020977534 0.046945367 -0.06988181 0.02690179
000120 5a d2 d8 bd e6 91 c9 bd 6c 20 94 3c 6f b4 0f 3e
       -0.105869964 -0.09842281 0.018081866 0.14033674
000130 63 2e bd bc a7 36 9a bd 0b c0 6a bd 3d 7b e6 bd
       -0.023093408 -0.07529955 -0.057312053 -0.112539746
000140 85 ea d5 3d 2e fd a6 3c e4 84 47 3d 57 34 af bc
       0.10445122 0.020384397 0.04871072 -0.021387262
000150 18 f1 e1 3c 75 2c 26 bb fa 77 25 3e b3 e2 23 be
       0.027580783 -0.0025356088 0.16159049 -0.16004448
000160 96 e3 8c bc 2c 3c 0e 3e 31 a3 ec 3d 22 96 e7 3d
       -0.017198365 0.13890141 0.11554564 0.113079324
000170 fa 97 7d bd 6e b7 0e 3c ab 64 9c bd c0 1d ab 3c
       -0.061912514 0.008710725 -0.076363884 0.02088821
000180 4b e2 09 3e 1c 2e 43 be aa 17 5c 3e c5 b7 c9 bd
       0.1346523 -0.19060558 0.21493402 -0.098495044
000190 e0 10 6f be eb 1e ce 3d 85 96 5c bd c1 24 9d 3c
       -0.23346281 0.10064491 -0.053854484 0.019182565
0001a0 cf 16 e2 3d 65 66 0e 3d 99 44 73 bd 41 b1 de bb
       0.11039507 0.03476562 -0.05939159 -0.0067960327
0001b0 e7 a7 a0 3d b7 eb b4 3d 31 11 c7 bd 97 25 a6 bd
       0.07844525 0.088340215 -0.09720076 -0.081126384
0001c0 da 0a 33 3c 59 38 01 3e 4e 78 82 bc a7 5b 7f 3c
       0.01092788 0.12619151 -0.015926506 0.015585816
0001d0 52 6c 9f bd f6 35 90 3b e1 82 e1 bc 5f 02 43 bd
       -0.07784332 0.004400964 -0.027528228 -0.047609683

classifier.0.weight f4 [84, 120]
000000 c3 3e d5 3d 80 e1 c6 be 2a 1f da 3d 29 64 23 be
       0.104123615 -0.38843918 0.10650475 -0.15956177
000010 ac 2f aa bd 32 ce 23 3e b9 8c 4b be c2 0c 01 3d
       -0.08309874 0.15996626 -0.198779 0.031506307
000020 7a 90 b6 3e 2c d0 46 bd 27 a3 c4 be 4e d4 c6 bd
       0.35657102 -0.048538372 -0.38405725 -0.09708463
000030 42 c6 2d be 77 3c 33 3e 34 78 89 bd c9 e6 99 be
       -0.1697016 0.17503534 -0.0671238 -0.30058888
000040 f3 e3 5e 3e 4a f1 33 3e 46 36 de 3d 38 74 22 3e
       0.21766643 0.17572513 0.108501956 0.15864646
000050 89 0c 03 be 57 56 a4 be dc e6 1d 3e 6d d1 cb 3d
       -0.1279775 -0.32097122 0.15420097 0.09952054
000060 83 6a 33 be 85 db 6f be aa 02 d1 3e 8d c4 91 be
       -0.175211 -0.23423584 0.40822345 -0.2847027
000070 aa 62 cf bd bf 05 9d 3e db 0c 56 be ea d1 42 3c
       -0.101262406 0.30668446 -0.20903341 0.011890868
000080 b5 15 44 3e 0d 07 e1 3c 97 26 f4 bc 18 72 0a bd
       0.19148906 0.027469182 -0.029803557 -0.033800215
000090 cf a9 bf 3c 34 d0 4d bd f6 ea c6 3d 32 cb 2f be
       0.0233964 -0.050247386 0.09712784 -0.17167357
0000a0 25 03 95 bd 8b bf 92 3d 24 41 6f 3d ff 93 e0 3d
       -0.072759904 0.0716544 0.058411732 0.10965728
0000b0 e6 cb 4b be 24 1d dd 3d 2d b8 ca 3d 2e ea e8 be
       -0.19902 0.10796574 0.0989841 -0.45491165
0000c0 c2 9d 3a 3e 58 97 29 be fe a4 1a bb 0e 40 bf 3e
       0.18224242 -0.1656164 -0.0023596878 0.37353557
0000d0 7a c7 23 bd 22 a8 81 3d f8 7d e1 3d 66 e9 f0 3d
       -0.039985158 0.06330897 0.11010355 0.11763267
0000e0 00 d1 91 3d 0e e7 49 3d 3e e2 58 3e 32 b3 00 3e
       0.07119942 0.049292617 0.21180055 0.12568358
0000f0 10 34 b6 3d ef 04 5a 3e d6 bb 39 3d fc 3b 20 be
       0.08896649 0.21290945 0.04534515 -0.15647882
000100 23 fb a3 bd be 6e ae bd 0c 15 12 be 4d ee 8e 3d
       -0.08006885 -0.08517216 -0.14265841 0.06979046
000110 45 ed 9f 3c 9b 6a 69 3d 1b 70 6c bb 2a d5 f5 3d
       0.019522319 0.056986433 -0.0036077562 0.120035484
000120 d5 e0 40 be 0b 86 d3 bd 5d 4a bf 3b be 7b 5a 3e
       -0.18835767 -0.10328301 0.005837722 0.21336266
000130 fe b2 58 3e a4 41 1b bd 05 d1 b3 bd 0e 96 b1 bd
       0.2116203 -0.037904397 -0.08780102 -0.08671199
000140 35 df 14 3e 7c d1 9d be 4f 2e 1c 3e 41 f3 76 3e
       0.14538272 -0.30823886 0.1525204 0.24116232
000150 37 80 0f 3e 6d 44 0e 3d 1f 9a 10 3d 19 da 92 3c
       0.14013754 0.034733225 0.03530323 0.017926263
000160 f1 e9 bc 3d 8d fb 81 3e 58 7c 17 3d 84 50 8a 3c
       0.09224308 0.2538723 0.036983818 0.016884096
000170 fe 51 91 3c 57 8c 6f 3e a9 e8 e7 bd e8 b3 57 3e
       0.017739292 0.23393379 -0.11323673 0.21064723
000180 cb 24 50 3e 12 e2 98 bd 12 98 29 3e 69 05 c2 3e
       0.20326535 -0.074649945 0.16561916 0.37894753
000190 ea 3f 18 be 46 6e 1b bb 19 78 53 3e c5 89 af 3d
       -0.14868131 -0.002371685 0.20651282 0.08571199
0001a0 73 76 62 be f6 e7 46 bd ca aa cb bd 1f f1 78 3e
       -0.22115497 -0.04856106 -0.09944685 0.2431073
0001b0 cf f9 db 3d 3d ed 8a 3e 04 60 8b bd 2b ea ca be
       0.107410066 0.27134123 -0.06805423 -0.3963178
0001c0 41 d0 8a be 40 d2 25 3e 1f f3 83 3e 3f 51 44 3e
       -0.2711201 0.16193485 0.25771424 0.19171618
0001d0 f3 b6 2a 3e 45 02 5c bd b5 5b c0 be ad c4 cf bd
       0.16671352 -0.053713102 -0.37569967 -0.10144935
0001e0 0c b4 95 bc 53 f8 c1 be cb e6 72 bd af 24 4e 3d
       -0.01827433 -0.3788477 -0.059302133 0.050327953
0001f0 07 83 6f 3d 71 96 5c be 3c 3b 15 3d ee a4 1f bd
       0.058474567 -0.21541764 0.036433443 -0.03897565
000200 c2 25 62 3e d3 22 b4 ba b3 db 74 be 6f 62 d5 bd
       0.22084716 -0.0013743289 -0.23911934 -0.10419165
000210 83 05 ab bd ba bb ac bd 32 56 6a bd d6 21 17 bc
       -0.08350661 -0.084342435 -0.05721111 -0.009224376
000220 45 37 31 3e 97 2a 13 3e 46 0e 8e 3c 8f 5a de bd
       0.1730624 0.14371715 0.01734079 -0.108571164
000230 46 6c 7b be 7a b5 0b be 87 47 da bd c8 4a 9e 3e
       -0.24553022 -0.13643447 -0.10658174 0.3091643
000240 14 a9 0f 3e bb 65 66 bd e9 34 74 3d 2b dc 31 be
       0.14029342 -0.05624936 0.05962077 -0.17369144
000250 7e b8 73 3e 9b 98 a0 bd cd 54 0d be 47 2e 95 be
       0.23800847 -0.07841607 -0.1380188 -0.2913687
000260 c9 2a 11 be 76 62 68 be 36 be a6 3d 75 75 2c be
       -0.14176477 -0.2269381 0.081417486 -0.16841681
000270 ee 40 29 bd 4e 43 67 3d b8 85 3b 3e ae 44 aa ba
       -0.041321687 0.05646067 0.18312728 -0.0012990439
000280 f8 50 80 be 20 ed 44 be c5 4c 9a 3e 61 51 20 bd
       -0.25061774 -0.19231081 0.30136696 -0.03914011
000290 95 45 df bd 0c 2d 18 3e 36 00 89 3d 67 be 1b be
       -0.109019436 0.14860934 0.06689493 -0.15209351
0002a0 9f ba 40 3e 98 2a be bd 0c 5a b2 3d 5f e7 97 3d
       0.1882119 -0.09285468 0.08708581 0.074171774
0002b0 6f fb cc 3c 75 9e a7 be 42 57 23 3e 44 53 25 3e
       0.025022237 -0.3273808 0.15951255 0.16145045
0002c0 57 b9 96 3c f0 ef 44 bd ac dc 9f 3e dd 5a 95 bd
       0.018398924 -0.048080385 0.31223047 -0.072927214
0002d0 bc 74 86 3d 86 87 b6 3e f2 72 58 3d a4 e1 31 bb
       0.06565234 0.3565027 0.052843995 -0.002714255
0002e0 b8 ea 41 be 85 04 e7 bd 8c f3 8b bd f3 21 4c be
       -0.18937194 -0.11280159 -0.06833562 -0.19934826
0002f0 19 23 96 3e d8 f8 27 3e d6 39 3b be 4b 4d 73 3e
       0.29323652 0.1640352 -0.18283781 0.23759954
000300 ef 8b 14 be 09 ef 30 3e 80 f7 82 be 49 75 40 bd
       -0.14506505 0.17278685 -0.25579453 -0.04698685
000310 e3 3f 14 bd f2 f7 62 3d 09 94 65 3e c5 cb 44 3e
       -0.03619374 0.05541224 0.22419752 0.19218357
000320 f1 a3 81 3c 58 22 7d be ea 4d 5d bd 57 56 4e 3e
       0.015825244 -0.24720132 -0.054029383 0.20150124
000330 55 2e 6e 3e 32 d6 e1 3d 72 11 29 3d 96 d3 b1 3d
       0.23259862 0.11027183 0.041276403 0.08682935
000340 23 21 01 3e f3 1c 54 3e 28 4d ea 3c 98 e6 aa bd
       0.12610297 0.20714168 0.028601244 -0.083447635
000350 b6 ec 37 3c d9 ad 8f 3d 54 71 49 be 0c 2f 83 bd
       0.01122587 0.07015581 -0.19672137 -0.06405458
000360 7b 03 98 bd fc ed e3 bc 3f 2c 18 be ca 92 2f 3e
       -0.07422539 -0.02782344 -0.14860629 0.1714584
000370 8a db ff 3c f5 44 04 3e 63 f4 ad 3d 30 f3 44 be
       0.031232614 0.1291693 0.08493879 -0.19233394
000380 21 e6 84 be 0a 1c a5 3e 1a 4b 3f be 1d 3f aa 3e
       -0.25956824 0.32247955 -0.18680993 0.33251277
000390 9a bb 9a 3d 7e 36 3a 3e d7 67 26 be 87 2f fc bc
       0.075553134 0.1818485 -0.1625055 -0.030784382
0003a0 f6 e5 17 bd 7a ed f2 3c cf 73 87 bd cd 78 8a bd
       -0.037084542 0.029654253 -0.066138856 -0.06761322
0003b0 0d ea 15 bb 23 f2 22 3e c4 96 83 be 7a 10 12 3e
       -0.00228751 0.1591268 -0.25700963 0.14264098
0003c0 b9 4f 86 3e b3 89 91 3e 2f ee 87 3e ac 80 15 be
       0.262327 0.2842537 0.26548907 -0.14599866
0003d0 8f 9b 69 bd f1 ec 13 bd 68 b3 f5 bb 59 43 17 3e
       -0.057033118 -0.036114637 -0.0074981935 0.14771785
0003e0 54 fc 71 be 4f ec 23 be 94 c9 e8 bd d0 a5 c9 bc
       -0.23631412 -0.16008113 -0.11366573 -0.024615198
0003f0 74 35 da 3c e9 ab 12 be 42 ae 37 be d4 38 74 bd
       0.026636817 -0.14323391 -0.17937568 -0.059624508

classifier.0.bias f4 [84]
000000 9d 49 18 3e 16 9f 54 3d 56 e2 0d be d9 63 d4 3c
       0.14871831 0.05190953 -0.13855872 0.025926517
000010 25 e3 de 3d 7b 33 59 3b 43 10 d8 bc de dd 27 3d
       0.10883168 0.0033142257 -0.026374942 0.040983073
000020 8d bf ad 3d 57 7f 01 3d 6f 8c 04 3c be 43 f5 bc
       0.08483801 0.03161558 0.008090123 -0.029939529
000030 14 d3 ad bd c4 aa 13 bd 10 bc 0c be bc a8 dc bc
       -0.084875256 -0.036051527 -0.13743615 -0.026935928
000040 10 77 3b bc 4d d5 a6 bd c5 90 91 bc 56 f4 24 bb
       -0.011441961 -0.08146153 -0.017769227 -0.002517005
000050 75 fd 0f be 89 43 27 bd 3f e8 97 3d 62 d5 8a 3d
       -0.1406153 -0.04083589 0.07417344 0.06778981
000060 6c ec 7b bd 5a cf ac bc 9d 6e 63 3d 18 27 ef 3d
       -0.061504766 -0.021094967 0.05552541 0.116773784
000070 9f 36 24 be 88 2c 9f bd a5 95 b0 3d f1 69 b4 bd
       -0.16036461 -0.077721655 0.086222924 -0.08809269
000080 0d 7f eb bc 9e 85 23 be 92 56 70 3d 4a 1f 08 be
       -0.028747106 -0.1596894 0.05867631 -0.13293186
000090 ec e2 66 3c d3 36 27 be 0b e4 f0 bd 49 26 db 3c
       0.014092188 -0.16329508 -0.11762246 0.026751654
0000a0 a4 38 98 3d c0 8f 8a 3e 53 e2 62 bb 65 97 a9 3d
       0.07432678 0.27062798 -0.0034619763 0.08280829
0000b0 97 8b 76 bc 8d 4b 02 bc a5 9c 87 bc 1a 5a 54 3d
       -0.015047929 -0.007952583 -0.016554186 0.05184374
0000c0 c5 5e cd bc ca aa 18 bc bb 50 8c bc 45 10 c0 3d
       -0.025069604 -0.009318063 -0.017128339 0.09378103
0000d0 0e dd 33 be a8 71 17 3e 34 99 f6 3c 5b 08 8a bd
       -0.17564794 0.1478945 0.03010235 -0.06739875
0000e0 f8 56 66 be 7c 4f 73 bd 74 7f a5 3d fa 44 05 3d
       -0.22494113 -0.059401974 0.080809504 0.032536484
0000f0 ba c0 73 3d cc 13 b6 3b d0 6b e9 3d 7e 03 44 3e
       0.05950997 0.005556559 0.11397517 0.19141957
000100 ff c8 ea bd 14 1d 2e 3d 08 1c c1 bc 90 c5 c3 3d
       -0.11464118 0.0425082 -0.023572937 0.095591664
000110 84 7d 34 bd ec 9c 19 bd 6b 71 31 3e 57 aa a9 bd
       -0.044065014 -0.037503168 0.17328422 -0.08284443
000120 c5 fc 9b 3d 7d 27 b4 3d 02 97 18 bc 98 b6 8f 3c
       0.07616571 0.08796594 -0.009313347 0.017543122
000130 bd b7 0b be f0 fe 82 bc db 4f 83 3d 14 5c 16 be
       -0.1364431 -0.015990704 0.064117156 -0.14683563
000140 11 ed e4 3d a6 92 cf 3c 46 f7 83 bc af e8 31 3d
       0.11178029 0.025338482 -0.01610912 0.043434795

classifier.2.weight f4 [10, 84]
000000 c9 5e 3c 3e e0 0b 5f 3e b7 99 e0 3e 8b 3c c6 bd
       0.18395533 0.21781874 0.43867275 -0.096795164
000010 d6 b1 14 bf 7a e7 5d 3d 15 69 ab 3e c7 de 2a bf
       -0.58083856 0.05417583 0.3347861 -0.6674618
000020 a4 25 09 3e 72 47 95 be 09 38 42 3e 74 e3 09 3e
       0.13393265 -0.2915607 0.18966688 0.13465673
000030 30 df 1f 3f e2 e7 dd bd ad 0f 00 3f ed 68 5d be
       0.6244993 -0.10835244 0.5002392 -0.21622057
000040 8b 55 8c 3e aa f0 bb be 77 7a 1b 3f 27 cf 5b be
       0.27409014 -0.3670705 0.6073374 -0.21465741
000050 dc c9 fc 3d 4e 62 8b 3e c9 f2 d3 be 3a 48 98 be
       0.12343189 0.27223438 -0.41396168 -0.29742604
000060 1e 98 10 be 13 50 29 bf cf 1a c3 3e 50 50 bd bc
       -0.14120528 -0.6613781 0.3810639 -0.023109585
000070 9d d5 c0 3b 7c 2f e3 3e df 9d 85 be 7d 19 05 bf
       0.0058848397 0.44372165 -0.2609701 -0.5199202
000080 7f 5e ef be 10 2a cf 3e be 71 0f bf 8f 15 df 3e
       -0.46751782 0.4046178 -0.5603293 0.43571135
000090 d6 84 58 3e 89 d4 e9 3e ed ed 27 bd 33 81 b0 be
       0.21144423 0.45669964 -0.040998388 -0.3447357
0000a0 38 10 dd 3e 7b 64 1b bf 11 8d 0e 3e 8b fd c1 be
       0.43176436 -0.60700196 0.13921 -0.3788875
0000b0 1c 8f dd 3e 04 cc 77 bd e4 88 64 bd fe 7e 86 3e
       0.43273246 -0.0604973 -0.05579461 0.26268762
0000c0 16 5f 64 3e 6b d6 f0 3b b6 f2 2b be 25 11 c9 3e
       0.22301897 0.0073497794 -0.16791806 0.39270893
0000d0 c7 01 91 3d 9b b6 82 be a9 21 ef be a9 4a e9 be
       0.07080417 -0.25529942 -0.46705368 -0.45564774
0000e0 46 82 ba bd 07 c5 00 be a0 d5 6b 3e c4 f1 40 be
       -0.09106879 -0.1257516 0.2303071 -0.18842226
0000f0 43 81 df 3e ea 9e 80 be 1b da c9 3e 8e a2 24 3e
       0.43653306 -0.25121242 0.39424214 0.16077635
000100 65 12 b4 be ea 0a 44 3f 46 c2 19 bf af f2 c4 bd
       -0.35170284 0.76579154 -0.6006206 -0.09616601
000110 57 91 bc be 87 19 c2 3e 93 9d 57 be 28 5a 2c 3f
       -0.36829636 0.379101 -0.21056204 0.6732507
000120 de 57 89 bd 83 8d 9d 3e 64 b0 23 3e f4 89 f6 3d
       -0.067062125 0.30772027 0.15985256 0.12038031
000130 45 7d e1 3d 32 0b 14 be b6 bd 40 be 34 9a 99 be
       0.110102214 -0.14457396 -0.18822369 -0.3000046
000140 09 ef 82 be b1 0b 2f 3e e3 ce 57 be 8d bf c1 be
       -0.25572994 0.17094304 -0.21075015 -0.37841454
000150 88 fc 17 3e f4 34 63 3e 9f 7b 11 be 9d e6 8b be
       0.14842427 0.22188169 -0.14207314 -0.2732438
000160 04 c0 1f be b2 93 da be 8b de e5 bd 05 99 02 bf
       -0.15600592 -0.42690808 -0.11224087 -0.5101474
000170 86 1e 1f 3e a7 68 2a be e0 21 47 be ce 2c 3f be
       0.15538988 -0.16641484 -0.19446516 -0.18669435
000180 49 33 35 be 75 f0 30 3e 60 1e 32 be 70 cb a3 3e
       -0.17695345 0.17279227 -0.173944 0.31991148
000190 68 75 14 be 11 3a 21 bf 16 2a 4c be 16 e9 d7 3e
       -0.14497912 -0.6297923 -0.1993793 0.42170018
0001a0 5d 84 b0 3e 30 3a 88 be 63 47 e5 3e 34 e7 b2 3e
       0.34475985 -0.26606894 0.44781026 0.3494202
0001b0 36 1f 76 be 4f ed 2a 3e 91 9a fe 3e 83 47 07 3f
       -0.24035344 0.16692089 0.497273 0.52843493
0001c0 cb 5e c5 be 74 e4 1f be d1 7d f9 3e ee f2 06 bf
       -0.38548884 -0.15614492 0.48728803 -0.5271443
0001d0 68 5f 82 be 38 cf ac be a6 42 1f 3e a6 6c 7d be
       -0.25463414 -0.33751845 0.15552768 -0.24748477
0001e0 20 c5 c3 be e5 7c 9f be a4 b7 e5 3e 34 14 b6 3e
       -0.38236332 -0.31149974 0.4486667 0.3556229
0001f0 6f be 29 be 3c 06 62 be ee a0 03 bf a9 5e e5 3e
       -0.16576551 -0.2207269 -0.51417434 0.44798782
000200 b5 a0 c3 be 74 c6 13 3e 7b 8f 02 bf 04 16 af be
       -0.38208547 0.14431173 -0.51000184 -0.34196484
000210 a6 7c b1 be 6d 1a de 3e b0 b0 a4 3e 65 56 b9 be
       -0.34665412 0.43379536 0.32166052 -0.36198726
000220 c2 24 ea 3e 76 c0 e9 3e 80 e0 a6 3d f4 0a 12 3e
       0.4573117 0.4565465 0.08148289 0.14261991
000230 94 25 3c 3e 9d 1f 02 bf 6a dd fa be e9 24 54 3e
       0.1837371 -0.5082949 -0.4899705 0.20717205
000240 ed 38 8e 3e 1f 86 20 be e4 44 6e be 2f f9 9c be
       0.27777806 -0.15676163 -0.23268467 -0.30658862
000250 b0 95 35 3e a0 dc 8d 3e bc 23 02 bd 2c 1e ef 3e
       0.17732882 0.27707386 -0.03177236 0.46702707
000260 a0 dc 03 bf be ba 9e be 97 1d 0a 3f a8 9f 97 be
       -0.5150852 -0.31001848 0.539514 -0.29613996
000270 7f e4 4c 3d e0 0f b9 be e3 53 cb 3e 12 b3 3c be
       0.0500226 -0.36144924 0.39712438 -0.18427685
000280 3e 4f a0 bd 28 64 d2 3e 09 76 82 be 67 a8 85 be
       -0.07827614 0.41092038 -0.2548068 -0.26105043
000290 60 e5 95 3e b3 51 63 3e d8 47 cb 3e ea 45 e0 bc
       0.29276562 0.22199135 0.3970325 -0.027377088
0002a0 6a 7a 0b 3e 51 1d 79 3e da 21 eb be e1 74 08 be
       0.13620916 0.2432759 -0.45924264 -0.13325836
0002b0 40 58 ca 3e c7 e5 df 3e 93 99 be 3e 9e 60 be 3e
       0.39520454 0.43729994 0.37226543 0.37183088
0002c0 d2 19 03 be 78 fc 14 bc f0 b9 a7 be be 72 bb be
       -0.12802818 -0.009093396 -0.32759047 -0.3661098
0002d0 69 52 fc 3e d8 c4 9c be 37 b9 44 be 0e 4e 88 be
       0.49281624 -0.3061893 -0.19211279 -0.2662205
0002e0 91 80 a2 be 34 8e ef be 1f bb ea 3e 8a a8 1a bf
       -0.31738713 -0.4678818 0.45845887 -0.6041342
0002f0 1d 40 eb be 9c ce 9b 3e 66 8f 4c be 7f 52 7f be
       -0.45947352 0.30431068 -0.19976577 -0.24933814
000300 3e 9d 51 be 9a 19 a5 3e 15 f1 c3 be 35 7a 42 be
       -0.2047014 0.32246095 -0.38269868 -0.18991931
000310 76 f4 c8 be 85 64 1d 3f fe 98 23 3f 75 a0 c5 be
       -0.3924901 0.61481506 0.6390532 -0.38598981
000320 5a 47 81 3e 4b 10 c4 be 9e 59 2b 3d cb 7c 99 be
       0.2524975 -0.3829368 0.041833512 -0.29978022
000330 ea 4f 15 3f 12 98 7b be de f8 9d be ae 2b da 3d
       0.58325064 -0.24569729 -0.30853933 0.106528625
000340 76 08 fc bc 00 c8 ac 3e 66 89 f0 be a8 3f 6a bd
       -0.030765753 0.33746338 -0.46979827 -0.057189614
000350 79 d4 22 be 36 b6 a2 bd e7 f1 e2 3c e4 34 6a be
       -0.15901364 -0.0794491 0.027703239 -0.22871739
000360 21 27 80 3e f3 85 42 bf 14 56 bd bd f2 42 c3 3e
       0.25029853 -0.7598564 -0.09244934 0.38137013
000370 b2 4f b5 be 3c 12 3a be bd 92 4f be c5 29 9c 3e
       -0.35412365 -0.18171018 -0.2027082 0.30500618
000380 27 17 1f bf 3d 11 fc be 15 a1 9f bd 8d 7d 99 3e
       -0.621447 -0.49231902 -0.07794396 0.299786
000390 9e 09 ea 3c b0 34 98 3e ff df b3 3e 5a 61 d6 3e
       0.028569039 0.29727697 0.35131833 0.41871148
0003a0 0d d2 98 3e 84 ec e6 3e aa 30 8e 3e 5f a1 b0 3d
       0.29847756 0.45102322 0.27771503 0.08624529
0003b0 d2 fd 26 3e 5f 21 2d 3d 2d 0d bf 3d 57 bc e2 be
       0.16307762 0.042268153 0.09328685 -0.44284317
0003c0 95 83 99 be ed 45 af bd 5b 46 90 3e 7a c9 37 be
       -0.29983202 -0.08558259 0.28178677 -0.17947951
0003d0 5a 70 03 bf 1e 61 55 be a7 a7 4a bb 98 61 25 be
       -0.5134331 -0.20837829 -0.0030922682 -0.1615051
0003e0 c8 3c 06 3f 32 6e 58 3e e3 20 c1 3e 56 55 32 3e
       0.52436495 0.21135786 0.37720403 0.17415366
0003f0 e5 39 2a 3e 65 77 ed be 16 86 0c 3f 8b 24 80 3d
       0.16623648 -0.46380153 0.548921 0.0625697

classifier.2.bias f4 [10]
000000 44 c2 99 bd aa 03 c5 bc 55 a2 ce 3d 17 b9 c6 bc
       -0.07507756 -0.024049599 0.10089556 -0.02425818
000010 20 13 be 3d 88 fa 76 bb d7 00 fe bd 9e 00 15 3e
       0.092809916 -0.003768595 -0.12402504 0.14551017
000020 b7 32 eb bd 35 8e d6 bd
       -0.114842825 -0.104763426
