01_introduction/final_exercise/model.pth (torch, 177875 bytes, 10 tensors)

feature_extractor.0.weight f4 [6, 1, 4, 4]
0.34058136 -0.09817024 -0.025440754 -0.3778934 -0.1586377 -0.2516632 -0.4626148 -0.5033196
0.048765868 -0.26438954 -0.23477906 -0.29807907 0.5391632 0.1445858 0.09821882 0.52906644
-0.28790337 -0.041280024 -0.36361894 -0.17387721 -0.4456682 0.07350407 -0.054606874 -0.11086769
-0.018082533 0.11191798 0.48667073 0.3317194 -0.13283911 0.4601273 0.5268677 0.41624257
0.37528354 0.10267562 0.18971433 0.1484407 0.37319362 -0.07667525 -0.25189328 -0.23142244
0.13647768 -0.49835187 -0.27856377 -0.40063807 0.06626649 -0.16486415 -0.37433738 -0.37723035
0.075179346 0.2218212 -0.12125917 -0.18985312 0.045907427 0.3643717 0.08471974 -0.29432112
0.23244739 0.6124071 0.42840073 0.19792564 -0.4803633 0.11151057 0.21038784 0.18643726
-0.28307158 -0.1359123 0.1657176 0.15800944 -0.042757653 0.0733535 0.63845044 0.23255941
-0.32788295 0.13840507 0.083355 0.35928077 -0.07973158 0.16901311 -0.27279526 -0.3231655
0.18954824 0.46927613 -0.0015437349 0.3213016 0.13089763 -0.37014866 -0.3990608 0.16474985
-0.07814041 -0.35049492 -0.4797864 -0.339704 0.053567227 -0.26466906 -0.4242058 0.24674304
00000000: ae60 ae3e 7b0d c9bd 2169 d0bc 3e7b c1be
00000010: ec71 22be 00da 80be d9db ecbe 8ed9 00bf
00000020: b8be 473d 115e 87be ec69 70be d29d 98be
00000030: 9906 0a3f 4d0e 143e f326 c93d e670 073f
00000040: 1268 93be 3e15 29bd 432c babe de0c 32be
00000050: 9f2e e4be 4d89 963d 75ab 5fbd 990e e3bd
00000060: d221 94bc 4135 e53d e82c f93e 20d7 a93e
00000070: fa06 08be ce95 eb3e cde0 063f bf1d d53e
00000080: 2a25 c03e 9847 d23d 7944 423e d700 183e
00000090: 3c13 bf3e ea07 9dbd 28f8 80be 01fa 6cbe
000000a0: cec0 0b3e fa27 ffbe e99f 8ebe 6f20 cdbe
000000b0: bab6 873d 26d2 28be 26a9 bfbe 5624 c1be
000000c0: a1f7 993d 1925 633e ba56 f8bd db68 42be
000000d0: 6d09 3c3d ed8e ba3e 8b81 ad3d 42b1 96be
000000e0: b006 6e3e b6c6 1c3f 5757 db3e 05ad 4a3e
000000f0: 2ef2 f5be a75f e43d e96f 573e 69e9 3e3e
00000100: c2ee 90be 982c 0bbe e0b1 293e 3acd 213e
00000110: a622 2fbd 5c3a 963d 7d71 233f 0e24 6e3e
00000120: 46e0 a7be 0fba 0d3e 07b6 aa3d a6f3 b73e
00000130: 504a a3bd c611 2d3e d2ab 8bbe f375 a5be
00000140: ef18 423e f644 f03e 2657 caba a581 a43e
00000150: 070a 063e 2084 bdbe b251 ccbe 2fb4 283e
00000160: 1408 a0bd 1274 b3be 90a6 f5be afed adbe
00000170: 4f69 5b3d b482 87be 8131 d9be 35aa 7c3e

feature_extractor.0.bias f4 [6]
-0.309667 0.267484 -0.4636711 -0.32182425 0.05305452 -0.49156588
00000000: ac8c 9ebe aaf3 883e 4c66 edbe 26c6 a4be
00000010: b24f 593d 86ae fbbe

feature_extractor.3.weight f4 [16, 6, 4, 4]
0.09723352 -0.16979182 -0.06279864 0.17688553 -0.09651952 -0.17166202 0.11316395 0.24317329
-0.11423651 0.19102289 0.25107992 0.1843118 0.27333263 0.29346383 0.034270037 0.027963575
0.12420144 0.17434168 -0.10801473 -0.24842401 0.26104835 -0.20956653 -0.35356417 -0.12036498
-0.30400565 -0.28955367 -0.16541587 0.14621292 -0.12326418 0.33346465 0.38107964 -0.033685073
-0.041143537 -0.1058061 -0.03579417 0.16467682 -0.22459947 0.04648105 0.3023161 0.20739348
0.19476198 0.36064625 0.26431566 0.036996853 0.13921867 -0.20434709 -0.24391305 0.0868181
-0.12914042 0.0045093237 0.12318374 -0.01874453 0.05787594 0.042982757 -0.033061393 0.044499766
-0.007021339 -0.060247134 -0.17596279 -0.008025498 0.020850543 -0.082109205 -0.05578221 -0.22982344
0.0017955892 0.18952803 0.015789485 -0.26109895 0.07377147 0.04774157 -0.2141994 -0.25502685
-0.012719 -0.1755406 -0.056873523 0.094218746 -0.20811157 -0.11641307 -0.004437523 0.14367186
-0.0016372581 -0.13667063 0.007679505 0.16790092 -0.24397136 -0.16349688 0.1042623 0.07621966
0.1201266 0.3518797 0.12927072 -0.11978067 0.071530335 0.039539624 -0.3068881 -0.017969757
-0.050330635 0.019197742 0.2789836 0.30881554 -0.077315226 -0.1607851 -0.09198756 0.049034305
0.09167102 -0.19423345 -0.15685749 0.04104571 0.35485306 0.045858473 -0.20499669 -0.28412142
0.04386072 0.31017163 0.035170216 0.24605574 -0.09240191 0.25154892 0.12095596 0.09549045
-0.1643668 -0.1644373 0.050407235 0.029076183 -0.06940372 -0.49828088 -0.30231243 0.1931436
-0.14671817 -0.19825897 0.08495837 -0.020708129 0.109660506 -0.28294066 -0.18542422 -0.11535085
0.1619317 0.1302047 -0.05729435 -0.047878094 0.13592784 0.28267586 0.04936546 -0.2576584
0.11771509 0.034214284 -0.06706383 -0.16494314 -0.052095056 0.2785826 0.32904574 0.18784474
-0.23281738 0.025726443 0.44042298 0.18017672 -0.022744821 -0.28403726 0.08636192 0.3584668
-0.030581478 -0.07078262 -0.27980375 -0.2999959 0.029657075 0.26321056 0.124744244 -0.014582019
-0.092529885 0.20409507 0.13831295 0.09508331 -0.15592739 -0.063857384 0.062228203 0.16500552
-0.075073965 -0.2315587 0.028174559 0.07083085 0.20327407 -0.16439685 -0.2399973 -0.2230198
0.21233872 0.12927714 -0.2455456 0.03608425 -0.012886337 0.37263802 0.12276628 -0.12611596
0.14561445 0.06889671 0.20683555 -0.032202095 0.025265524 0.121098384 -0.089472 -0.17909628
-0.118465826 -0.13990788 -0.33952597 -0.093071 0.0013873082 -0.013004214 -0.3220876 0.18800446
0.035256308 -0.004676148 -0.11606014 0.22123021 0.117267475 0.06089467 0.15333936 0.16259947
-0.08888879 0.09194022 0.12921646 -0.09612819 -0.004778495 0.28409216 0.3919581 -0.07369881
0.07315672 0.04338841 0.011704884 -0.18710156 0.032763965 -0.060705747 -0.058603503 -0.31240538
-0.122362696 -0.13748564 -0.3301711 0.09989754 0.02819653 -0.20073216 -0.32467216 -0.00072963303
-0.071494535 -0.23466922 -0.1853552 -0.06954059 -0.07019002 -0.18554775 -0.16169718 -0.16428667
-0.11195939 -0.17702569 -0.06660435 -0.07991875 -0.054089896 -0.14020061 0.1172998 -0.11003236
00000000: 5e22 c73d e8dd 2dbe 939c 80bd 7b21 353e
00000010: 07ac c5bd 2bc8 2fbe 80c2 e73d 6b02 793e
00000020: d5f4 e9bd 819b 433e 8c8d 803e 3cbc 3c3e
00000030: 41f2 8b3e e440 963e bd5e 0c3d de13 e53c
00000040: 535d fe3d a086 323e d436 ddbd dd62 7ebe
00000050: 21a8 853e 9c98 56be 5d06 b5be ea81 f6bd
00000060: a1a6 9bbe 6140 94be c762 29be d7b8 153e
00000070: ee71 fcbd e1bb aa3e df1c c33e 5cf9 09bd
00000080: 2086 28bd deb0 d8bd e89c 12bd 0aa1 283e
00000090: 67fd 65be ea62 3e3d 2dc9 9a3e f55e 543e
000000a0: af6f 473e a0a6 b83e 6254 873e 038a 173d
000000b0: 578f 0e3e 5d40 51be 58c4 79be b0cd b13d
000000c0: 633d 04be f3c2 933b c247 fc3d 218e 99bc
000000d0: 520f 6d3d b00e 303d 626b 07bd 6345 363d
000000e0: 4313 e6bb b3c5 76bd 972f 34be 617d 03bc
000000f0: c2ce aa3c df28 a8bd e37b 64bd d656 6bbe
00000100: fa59 eb3a a313 423e f358 813c c3ae 85be
00000110: 7f15 973d aa8c 433d 1657 5bbe e192 82be
00000120: 5a63 50bc eac0 33be 36f4 68bd c2f5 c03d
00000130: 331b 55be fa69 eebd a468 91bb b71e 133e
00000140: 4499 d6ba 63f3 0bbe 5ba4 fb3b 38ee 2b3e
00000150: a1d3 79be ba6b 27be 7987 d53d 0e19 9c3d
00000160: ef04 f63d 9329 b43e 8b5f 043e 914f f5bd
00000170: 7f7e 923d 4df4 213d 7020 9dbe 5035 93bc
00000180: 7f27 4ebd 9544 9d3c f0d6 8e3e 121d 9e3e
00000190: 7257 9ebd d9a4 24be f963 bcbd 32d8 483d
000001a0: 04be bb3d 22e5 46be 409f 20be 8c1f 283d
000001b0: 4daf b53e 18d6 3b3d a7ea 51be 5d78 91be
000001c0: 4ca7 333d d1ce 9e3e a50e 103d 09f6 7b3e
000001d0: 363d bdbd 05cb 803e c2b7 f73d 7f90 c33d
000001e0: c54f 28be 4062 28be d177 4e3d 2d31 ee3c
000001f0: 8a23 8ebd ac1e ffbe b2c8 9abe 70c7 453e
00000200: 4a3d 16be 6604 4bbe a7fe ad3d 18a4 a9bc
00000210: b095 e03d 99dd 90be d9df 3dbe 113d ecbd
00000220: 6cd1 253e 6254 053e 7bad 6abd d21b 44bd
00000230: ab30 0b3e e4ba 903e 7033 4a3d cdeb 83be
00000240: 9c14 f13d 4724 0c3d c358 89bd dbe6 28be
00000250: a061 55bd 61a2 8e3e af78 a83e 5f5a 403e
00000260: ae67 6ebe 43c0 d23c 1f7f e13e 3f80 383e
00000270: 5953 babc 556d 91be 85de b03d f688 b73e
00000280: 0286 fabc 7af6 90bd 7042 8fbe 1099 99be
00000290: 65f3 f23c 89c3 863e e979 ff3d 6ce9 6ebc
000002a0: 4f80 bdbd 4cfe 503e e9a1 0d3e 0abb c23d
000002b0: 6eab 1fbe a9c7 82bd 00e3 7e3d 35f7 283e
000002c0: 61c0 99bd b91d 6dbe 55ce e63c c40f 913d
000002d0: 1427 503e a657 28be dac1 75be 4d5f 64be
000002e0: 526f 593e 3a61 043e 4e70 7bbe 14cd 133d
000002f0: 3721 53bc 69ca be3e e36c fb3d 8b24 01be
00000300: f41b 153e b819 8d3d b3cc 533e 58e6 03bd
00000310: a5f9 ce3c 6e02 f83d 193d b7bd 0465 37be
00000320: 369e f2bd 0344 0fbe 59d6 adbe 029c bebd
00000330: 57d6 b53a a00f 55bc aae8 a4be 3e84 403e
00000340: eb68 103d 5f3a 99bb f0b0 edbd 2c8a 623e
00000350: ee29 f03d b16c 793d fe04 1d3e 7a80 263e
00000360: 530b b6bd 274b bc3d 5251 043e dbde c4bd
00000370: ec94 9cbb 8774 913e bbae c83e 67ef 96bd
00000380: 31d3 953d 0cb8 313d d7c5 3f3c 8d97 3fbe
00000390: 8233 063d 97a6 78bd 3a0a 70bd 99f3 9fbe
000003a0: 4b99 fabd 09c9 0cbe 300c a9be 1597 cc3d
000003b0: 69fc e63c bb8c 4dbe 6e3b a6be d844 3fba
000003c0: ba6b 92bd 214d 70be c1cd 3dbe 4c6b 8ebd
000003d0: c9bf 8fbd 3b00 3ebe f293 25be c43a 28be
000003e0: f74a e5bd 3946 35be dd67 88bd 71ac a3bd
000003f0: 5e8d 5dbd c090 0fbe e13a f03d a558 e1bd

feature_extractor.3.bias f4 [16]
0.031540643 -0.35376632 0.25212067 -0.1106323 -0.02518263 0.104256816 -0.015112052 0.13182594
-0.19575582 0.08599333 -0.06122995 -0.14529887 -0.32025126 0.08923273 0.008606532 -0.02044158
00000000: c330 013d dc20 b5be f615 813e 3093 e2bd
00000010: ce4b cebc 9984 d53d 8a98 77bc 61fd 063e
00000020: 3774 48be 451d b03d 42cc 7abd 3ac9 14be
00000030: f9f7 a3be a6bf b63d 6902 0d3c 1a75 a7bc

feature_extractor.6.weight f4 [120, 16, 4, 4]
0.08289491 0.068397455 -0.03787279 -0.20164768 0.009744715 -0.19499475 -0.11241608 0.0435258
-0.1668011 -0.099902384 -0.0058744843 -0.03363357 0.01984855 0.034246378 0.0031927915 0.043542866
0.015666958 0.00923091 -0.13256922 0.056629196 -0.04314524 0.040893774 0.039696585 -0.14223723
0.044883147 -0.03379841 0.007201913 -0.042608585 0.06278905 0.030264538 0.12834315 0.21075177
-0.17199701 -0.10049809 -0.06272096 -0.056025714 -0.116942 -0.045099426 -0.0478626 -0.23107143
-0.012813404 0.048262477 -0.05164782 -0.10769295 -0.023643704 -0.11149399 -0.027438534 0.095749676
0.051601175 0.004813319 -0.07016438 0.07091932 -0.06907029 -0.087068245 -0.21761297 0.07800937
0.03651171 -0.20603223 0.14537619 0.03705893 0.12558465 0.086836256 0.08639685 -0.19955912
-0.038561355 0.17553312 0.10287835 -0.10209254 0.13628799 -0.091019414 0.12832318 0.1709538
-0.094450265 0.020734733 -0.0037992396 0.09106296 0.1469804 0.0073370202 0.17622723 0.094576664
-0.061525572 -0.031124327 0.0004822952 0.22887306 -0.19037628 -0.01672382 -0.08257613 0.015469985
-0.18303353 -0.032582425 0.1114224 -0.15538277 -0.016981306 0.08068575 -0.06793228 0.06920182
0.0679271 -0.17260876 0.0034637218 0.100087754 0.032788556 -0.061418787 -0.12994157 0.20008935
-0.06903451 -0.014952196 0.10187585 0.058990944 -0.075982146 0.10069942 -0.03567175 -0.13379976
-0.17262955 0.056314122 0.09057868 -0.08139095 0.108466 -0.015932236 0.23378547 0.060946975
-0.008858286 0.098467246 -0.06410277 0.1481654 0.14948171 -0.030934663 -0.005933035 0.21925838
0.12893994 -0.09053246 -0.12416168 -0.068208806 -0.1564054 -0.18240848 -0.27682173 0.0044784946
-0.023981491 -0.12439143 -0.061390147 0.16864784 0.05990002 0.016954139 0.26215887 -0.08108517
-0.002683558 -0.035611376 0.1303842 0.020453526 0.0652743 0.096405916 -0.007580595 0.11334985
-0.1256282 -0.09620239 -0.008255482 0.03951469 -0.0369174 0.02844209 -0.1614917 -0.18310815
-0.18345135 -0.047265604 -0.05056304 0.0951806 -0.124616414 0.039211243 -0.08691639 -0.107012585
-0.14192292 -0.121370435 -0.0180515 -0.058390148 -0.07343504 -0.1006357 -0.119507074 0.12036824
0.17557101 -0.17605801 -0.13539056 0.07987242 -0.059609946 -0.070098095 -0.25260162 -0.07847992
-0.20730685 -0.08622273 0.0042732004 -0.00018436555 0.0047610095 0.338304 0.2464026 -0.12776846
-0.012124114 0.19585511 0.025310047 0.29641703 0.03269927 0.14759867 -0.10645531 -0.038347397
0.009977731 0.0010402316 -0.030074125 0.04337108 0.021413835 -0.008141843 0.16931547 0.19769135
-0.0045662946 -0.081424706 -0.13734192 0.12985538 -0.07973393 -0.06253147 -0.17800939 -0.01914515
-0.0120645035 -0.042699866 0.048738852 -0.0051490376 0.042488977 0.21087746 0.28013876 -0.111222185
0.23100033 0.16134152 -0.062134326 -0.030153235 -0.07231243 0.03123387 0.047834914 -0.0969762
0.06463839 0.10308403 0.019672478 0.010660062 -0.05361664 -0.009583227 0.17125376 -0.21058914
0.12382709 0.118395664 0.2900677 0.01914867 0.0823424 0.084956184 0.1517744 0.17454952
0.044255223 0.11523875 -0.03419951 -0.030089835 0.04614743 -0.03282445 -0.28544515 -0.21906544
00000000: cec4 a93d f713 8c3d 8020 1bbd bb7c 4ebe
00000010: 4ca8 1f3c b4ac 47be 673a e6bd 1c48 323d
00000020: e8cd 2abe 9f99 ccbd bf7e c0bb 5bc3 09bd
00000030: 6d99 a23c ee45 0c3d 273e 513b 015a 323d
00000040: fe57 803c 3e3d 173c 3ac0 07be 04f4 673d
00000050: 10b9 30bd 3b80 273d e398 223d a3a6 11be
00000060: 64d7 373d 3470 0abd 06fe eb3b 5786 2ebd
00000070: 8c97 803d 56ed f73c 636c 033e 50cf 573e
00000080: fc1f 30be f1d1 cdbd d973 80bd 387b 65bd
00000090: 4a7f efbd 2dba 38bd 930b 44bd fd9d 6cbe
000000a0: 50ef 51bc e0ae 453d aa8c 53bd 1f8e dcbd
000000b0: 71b0 c1bc f656 e4bd c7c6 e0bc 6818 c43d
000000c0: c15b 533d 0cb9 9d3b 58b2 8fbd 263e 913d
000000d0: b974 8dbd d650 b2bd efd5 5ebe 60c3 9f3d
000000e0: 4e8d 153d 1dfa 52be 7fdd 143e 1bcb 173d
000000f0: 4399 003e 35d7 b13d d5f0 b03d 3a59 4cbe
00000100: 83f2 1dbd f4be 333e e2b1 d23d e515 d1bd
00000110: 148f 0b3e 6368 babd 2767 033e 830e 2f3e
00000120: 246f c1bd e3db a93c aafc 78bb 387f ba3d
00000130: 0882 163e 636b f03b e974 343e 69b1 c13d
00000140: 3d02 7cbd 72f8 febc 91dc fc39 b35d 6a3e
00000150: 00f2 42be 6400 89bc ad1d a9bd d275 7d3c
00000160: 246d 3bbe 2675 05bd 6d31 e43d a91c 1fbe
00000170: 611c 8bbc 923e a53d 1420 8bbd afb9 8d3d
00000180: 5d1d 8b3d 5ac0 30be 9cff 623b cffa cc3d
00000190: 4b4d 063d 4492 7bbd 670f 05be 39e4 4c3e
000001a0: f761 8dbd 0efa 74bc 49a4 d03d 7da0 713d
000001b0: 879c 9bbd 7f3b ce3d 8a1c 12bd ce02 09be
000001c0: cdc5 30be a3a9 663d 5181 b93d 4cb0 a6bd
000001d0: 6c23 de3d 5284 82bc 7565 6f3e 89a3 793d
000001e0: 5822 11bc 32a9 c93d 5048 83bd acb8 173e
000001f0: bc11 193e b16a fdbc e869 c2bb 4585 603e
00000200: d508 043e 1569 b9bd 7b48 febd 0fb1 8bbd
00000210: bd28 20be 4ac9 3abe 94bb 8dbe 56c0 923b
00000220: d574 c4bc efc0 febd 3c74 7bbd 05b2 2c3e
00000230: b959 753d 68e3 8a3c b039 863e fb0f a6bd
00000240: a2de 2fbb 3cdd 11bd 7083 053e 278e a73c
00000250: 88ae 853d 7770 c53d a466 f8bb f723 e83d
00000260: aea4 00be c205 c5bd 0042 07bc 28da 213d
00000270: b336 17bd 63ff e83c 155e 25be b480 3bbe
00000280: acda 3bbe 9499 41bd 311b 4fbd 0cee c23d
00000290: e436 ffbd f89b 203d 3801 b2bd 6a29 dbbd
000002a0: 3e54 11be 1091 f8bd bde0 93bc 822a 6fbd
000002b0: 1c65 96bd 171a cebd 20c0 f4bd a083 f63d
000002c0: e3c8 333e 8d48 34be d3a3 0abe 2794 a33d
000002d0: 8f29 74bd 978f 8fbd 0055 81be 15ba a0bd
000002e0: 3f48 54be 8b95 b0bd 3406 8c3b 4052 41b9
000002f0: 3e02 9c3b 2f36 ad3e f750 7c3e bcd5 02be
00000300: 38a4 46bc 3e8e 483e 0457 cf3c f9c3 973e
00000310: abef 053d 1b24 173e 3e05 dabd 2912 1dbd
00000320: a379 233c 6158 883a 035e f6bc e0a5 313d
00000330: 116c af3c 5d65 05bc 0961 2d3e 9a6f 4a3e
00000340: dba0 95bb ffc1 a6bd 5ca3 0cbe cff8 043e
00000350: 8b4b a3bd 8010 80bd 1848 36be 4ad6 9cbc
00000360: 32aa 45bc 0ee6 2ebd 64a2 473d 42b9 a8bb
00000370: ec08 2e3d 43f0 573e 596e 8f3e 75c8 e3bd
00000380: 5a8b 6c3e b636 253e 9080 7ebd eb03 f7bc
00000390: 8a18 94bd 2cde ff3c 8bee 433d 759b c6bd
000003a0: 2261 843d b81d d33d 2d28 a13c 8aa7 2e3c
000003b0: 1f9d 5bbd f802 1dbc 255d 2f3e aea4 57be
000003c0: 0f99 fd3d 6d79 f23d c183 943e acdd 9c3c
000003d0: 22a3 a83d 82fd ad3d c06a 1b3e 1cbd 323e
000003e0: f744 353d 4b02 ec3d c914 0cbd f57e f6bc
000003f0: 1605 3d3d ee72 06bd de25 92be b152 60be

feature_extractor.6.bias f4 [120]
-0.13741013 -0.052329954 0.051481307 -0.10996465 -0.04380665 -0.018896576 -0.027019152 -0.10102102
0.11968001 -0.05591255 0.019815072 0.06768878 -0.14000005 -0.078588404 -0.19025761 0.048951887
0.008973562 0.050733875 0.0008703755 0.023633702 -0.09793201 -0.018251272 -0.123786606 -0.0066354927
-0.06399764 -0.09832993 0.04600427 -0.004508294 -0.083147496 -0.07831209 -0.17636399 -0.10014824
0.069247715 -0.010759593 -0.10846003 0.019933159 -0.094101444 0.08298096 -0.00041412242 -0.053530127
0.042511612 0.013267694 -0.056088176 -0.078642175 0.0941019 -0.0011224358 -0.011062615 -0.08372376
0.08336683 0.03980078 -0.11005271 0.10852385 -0.08544279 -0.071412705 -0.010573733 0.113521494
0.11902031 0.025991302 -0.011549571 0.052715894 -0.026323715 0.05829985 -0.05579805 0.053579852
-0.032072682 0.061732713 0.02442851 -0.031983368 0.064422585 -0.11284305 -0.029965017 -0.061106853
-0.009982591 0.09627165 -0.0152611425 0.14838381 0.12118695 0.036439553 0.13204594 -0.011633422
-0.14427227 0.10983968 -0.04341321 0.0857299 -0.07298967 0.025474746 -0.07616376 -0.07759452
-0.052778613 -0.036943186 0.034441058 0.05909879 0.045939043 -0.15805331 0.010177551 -0.024502333
-0.06737954 0.122255385 -0.0072085275 0.00021512707 -0.03851012 0.09762739 0.0327679 0.13182007
0.0146006 0.04526674 -0.042895436 0.006723571 0.0769784 0.0334222 -0.14202663 0.04410545
-0.07055131 0.09926471 0.02255338 -0.17354727 -0.035519082 0.09972536 -0.03819296 -0.12767358
00000000: 3eb5 0cbe ef57 56bd 10de 523d 2535 e1bd
00000010: 9a6e 33bd fecc 9abc 4557 ddbc 1ce4 cebd
00000020: cb1a f53d 8f04 65bd 3853 a23c 6aa0 8a3d
00000030: 2c5c 0fbe f5f2 a0bd e4d2 42be c681 483d
00000040: d905 133c 53ce 4f3d e929 643a 779b c13c
00000050: 9490 c8bd b183 95bc d583 fdbd 8c6e d9bb
00000060: 3211 83bd 3461 c9bd f96e 3c3d 50ba 93bb
00000070: 3c49 aabd 1762 a0bd c398 34be 851a cdbd
00000080: bfd1 8d3d 0149 30bc 4b20 debd dd4a a33c
00000090: 42b8 c0bd ecf1 a93d 921e d9b9 6842 5bbd
000000a0: a820 2e3d be60 593c b7bc 65bd 260f a1bd
000000b0: 7fb8 c03d b21e 93ba f83f 35bc 5d77 abbd
000000c0: 3bbc aa3d 2506 233d 5163 e1bd c141 de3d
000000d0: a1fc aebd d340 92bd 733d 2dbc f57d e83d
000000e0: ecc0 f33d b6eb d43c 693a 3dbc 9fec 573d
000000f0: d5a4 d7bc d3cb 6e3d 7f8c 64bd 8c76 5b3d
00000100: a55e 03bd 71db 7c3d 4c1e c83c fe00 03bd
00000110: fdef 833d 421a e7bd 3279 f5bc 2e4b 7abd
00000120: 058e 23bc 122a c53d df09 7abc edf1 173e
00000130: dd30 f83d a441 153d 0d37 073e 1c9a 3ebc
00000140: 1cbc 13be a0f3 e03d 0dd2 31bd 2893 af3d
00000150: 9c7b 95bd 6ab0 d03c bffb 9bbd e0e9 9ebd
00000160: 632e 58bd bd51 17bd 1112 0d3d 9311 723d
00000170: 942a 3c3d bad8 21be bebf 263c 1eb9 c8bc
00000180: 49fe 89bd 0861 fa3d 8335 ecbb bc93 6139
00000190: cabc 1dbd def0 c73d a237 063d d7fb 063e
000001a0: 5b37 6f3c 9e69 393d 20b3 2fbd 6751 dc3b
000001b0: daa6 9d3d b7e5 083d 6e6f 11be eba7 343d
000001c0: 357d 90bd 4c4b cb3d dec1 b83c 60b6 31be
000001d0: 757c 11bd cf3c cc3d 3970 1cbd ddbc 02be

classifier.0.weight f4 [84, 120]
0.14018491 -0.1419972 -0.11820417 0.0106869545 0.060796928 0.08696448 0.20675777 -0.17177786
-0.12800755 -0.0761697 -0.12906069 -0.1032947 -0.0886625 0.18428043 0.42849407 -0.084516525
-0.008038818 -0.25921687 0.03238872 0.081944264 -0.08875137 0.1892775 0.097595446 0.022020716
-0.077768 -0.027323863 -0.08375542 -0.067803234 0.14562777 -0.09458351 -0.055380464 0.020935984
0.022898136 -0.11969634 0.07501935 0.11262472 -0.08317657 -0.20730565 0.3514236 -0.00869496
0.10568172 -0.06104955 -0.08502854 -0.12411989 0.079641566 -0.08206377 -0.072743244 0.0427643
-0.2845523 0.08835349 0.1471749 0.13201319 -0.03879427 -0.033208102 -0.09857949 0.21271783
0.10299918 0.06151625 0.08963787 -0.13497208 -0.037204813 0.009061161 -0.2286824 -0.047881085
-0.17118956 0.14352278 -0.044511847 0.12194291 0.045777105 -0.1994391 -0.007447173 -0.06312559
-0.15298404 0.17182899 0.019308858 0.091428585 -0.014420216 0.086758986 -0.32035965 -0.20130785
0.040305536 0.17453787 0.118969806 -0.019990308 -0.029075447 0.09494313 0.017627692 0.06982872
0.18674894 -0.09568885 -0.05732432 -0.2936551 0.1069414 -0.0876146 -0.1938451 0.15262021
-0.07497993 0.3622091 0.014129649 0.06610981 -0.039310146 0.07078011 0.012071897 0.0051730676
0.09898414 -0.2050774 0.18624148 -0.032584555 -0.069709264 -0.041702498 0.298466 -0.15665017
0.07501192 0.25425187 0.12806311 0.15357111 -0.079458326 -0.080297604 -0.08896478 0.14801578
0.026909014 0.1353201 0.04064755 -0.23327343 -0.14224137 0.032264624 -0.14076877 -0.035669755
0.1293178 0.18145643 -0.037128758 0.0048916624 -0.22566997 -0.13211927 -0.23799208 0.25262
-0.09269503 -0.013395367 0.041070856 -0.12461052 0.11603726 0.006674795 0.22400425 -0.20155767
-0.12608962 0.03699242 -0.0012462536 0.012460049 0.18016739 0.18685392 0.08112485 0.31638554
-0.082200326 0.06037519 -0.07566556 -0.05039524 -0.022680072 0.016124785 -0.25851315 -0.090917565
-0.1312341 0.25395292 -0.0775004 -0.009901211 0.028497523 -0.28128013 -0.011263378 0.30726466
-0.1579923 0.049817003 0.010165492 0.024208596 -0.024844425 0.04752409 0.16571316 -0.033579122
-0.14454131 0.0069867265 0.12338607 0.040386517 0.016959514 0.19305904 -0.15263312 -0.083595745
0.1954465 -0.091615 -0.123660706 -0.29763523 -0.09138085 0.059346966 0.08359005 0.110200375
0.41242948 -0.17404467 0.22953188 -0.053524967 0.027114026 -0.24044514 -0.09135341 0.21732786
0.0077576376 0.032697197 0.07740602 0.13167417 -0.0035944001 -0.10852343 -0.022931453 0.013988741
-0.24740165 0.26745152 0.10045114 0.11711675 -0.012474021 0.07602636 -0.04063814 -0.20881778
-0.06135382 0.09162572 -0.047953676 -0.19378367 0.13675226 -0.06539141 -0.26054785 -0.3149702
0.08147275 0.22427383 -0.27414957 0.0012581734 -0.11509841 -0.2261685 -0.14481136 0.10182414
0.0065169325 -0.03212377 0.079474464 -0.21441421 0.049762323 -0.042556986 0.038941056 0.03202036
-0.025047587 -0.20873713 0.07383651 0.001584605 0.04211971 0.030958679 -0.1753224 -0.3688047
-0.18107253 -0.13992064 -0.09078552 -0.024157695 -0.16691579 0.05524448 0.16463508 0.3109962
00000000: a28c 0f3e b767 11be 0715 f2bd 5618 2f3c
00000010: 3306 793d 6f1a b23d 4fb8 533e 89e6 2fbe
00000020: 6914 03be dcfe 9bbd 7c28 04be 2c8c d3bd
00000030: af94 b5bd 02b4 3c3e 9363 db3e 0017 adbd
00000040: 3fb5 03bc 13b8 84be 09aa 043d 65d2 a73d
00000050: 47c3 b5bd f6d1 413e 1fe0 c73d ca64 b43c
00000060: d444 9fbd 4bd6 dfbc f687 abbd 6cdc 8abd
00000070: 721f 153e 00b5 c1bd a0d6 62bd f181 ab3c
00000080: df94 bb3c 5b23 f5bd bfa3 993d caa7 e63d
00000090: 7a58 aabd ef47 54be cbed b33e 4e75 0ebc
000000a0: a86f d83d 180f 7abd 7123 aebd 9232 febd
000000b0: 1e1b a33d 0d11 a8bd 69fa 94bd 9e29 2f3d
000000c0: d7b0 91be adf2 b43d 04b5 163e 772e 073e
000000d0: bee6 1ebd 3805 08bd 0be4 c9bd b4d2 593e
000000e0: 3cf1 d23d 77f8 7b3d 0f94 b73d 1f36 0abe
000000f0: 1364 18bd 4475 143c b82b 6abe f51e 44bd
00000100: 514c 2fbe a3f7 123e 0e52 36bd 34bd f93d
00000110: c680 3b3d c339 4cbe 6a07 f4bb fd47 81bd
00000120: d9a7 1cbe f0f3 2f3e 9c2d 9e3c e93e bb3d
00000130: c542 6cbc b2ae b13d 2e06 a4be a523 4ebe
00000140: 6b17 253d 0eba 323e 71a6 f33d b7c2 a3bc
00000150: a22f eebc 8b71 c23d f367 903c 5c02 8f3d
00000160: 1d3b 3f3e 84f8 c3bd e8cc 6abd f659 96be
00000170: 1804 db3d 496f b3bd 547f 46be 7948 1c3e
00000180: 148f 99bd 7973 b93e 0b80 673c 9464 873d
00000190: ad03 21bd 2af5 903d 35c9 453c d682 a93b
000001a0: 32b8 ca3d cfff 51be 16b6 3e3e 6277 05bd
000001b0: bbc3 8ebd 3dd0 2abd 89d0 983e e768 20be
000001c0: d99f 993d 4d2d 823e fa22 033e bf41 1d3e
000001d0: 0cbb a2bd 1273 a4bd 2b33 b6bd 7391 173e
000001e0: 4b70 dc3c 5a91 0a3e 0c7e 263d 3bdf 6ebe
000001f0: b9a7 11be e927 043d b025 10be 731a 12bd
00000200: e36b 043e b7cf 393e 5314 18bd 3d4a a03b
00000210: 0716 67be 464a 07be 32b4 73be 6957 813e
00000220: e4d6 bdbd 3e78 5bbc ea39 283d cd33 ffbd
00000230: f1a4 ed3d 3db8 da3b 5f61 653e 2265 4ebe
00000240: a31d 01be 5d85 173d 5559 a3ba 3c25 4c3c
00000250: cd7d 383e a256 3f3e c924 a63d 49fd a13e
00000260: a558 a8bd fa4b 773d 8cf6 9abd 3d6b 4ebd
00000270: 8fcb b9bc 2018 843c d65b 84be fd32 babd
00000280: 3b62 06be 1e06 823e 88b8 9ebd b038 22bc
00000290: a373 e93c f303 90be 088a 38bc cb51 9d3e
000002a0: bcc8 21be ea0c 4c3d 2a8d 263c 1b51 c63c
000002b0: 8986 cbbc 9fa8 423d b6b0 293e 438a 09bd
000002c0: a302 14be e9f0 e43b d6b1 fc3d 556c 253d
000002d0: aeee 8a3c 45b1 453e db4b 1cbe 3f34 abbd
000002e0: 2123 483e a5a0 bbbd d341 fdbd a563 98be
000002f0: e225 bbbd ce15 733d 4331 ab3d bcb0 e13d
00000300: f529 d33e c438 32be 680a 6b3e ff3c 5bbd
00000310: 3c1e de3c 4037 76be 7f17 bbbd 328b 5e3e
00000320: c833 fe3b 7fed 053d 0c87 9e3d 98d5 063e
00000330: 0790 6bbb 8841 debd beda bbbc 0831 653c
00000340: dc56 7dbe 68ef 883e 54b9 cd3d e8da ef3d
00000350: d65f 4cbc b5b3 9b3d 2e74 26bd 54d4 55be
00000360: 254e 7bbd 44a6 bb3d 136b 44bd 3a6f 46be
00000370: c908 0c3e eeeb 85bd 8766 85be c643 a1be
00000380: 2fdb a63d 0aa8 653e 555d 8cbe 4be9 a43a
00000390: b7b8 ebbd b798 67be 6e49 14be 2d89 d03d
000003a0: fe8b d53b 3794 03bd 82c3 a23d 668f 5bbe
000003b0: 94d3 4b3d 3c50 2ebd a880 1f3d c827 033d
000003c0: 9930 cdbc 30bf 55be 9937 973d 85b2 cf3a
000003d0: b885 2c3d 0e9d fd3c b787 33be f8d3 bcbe
000003e0: 146b 39be 5b47 0fbe c2ed b9bd 5ce6 c5bc
000003f0: f9eb 2abe 0948 623d 1996 283e e53a 9f3e

classifier.0.bias f4 [84]
-0.104918644 -0.10984741 -0.072000116 0.055642918 -0.14813201 -0.112277426 -0.13949533 0.092087485
0.004554044 0.10995428 0.07048367 -0.010651839 -0.06349791 -0.23682089 -0.09495883 0.04924287
0.14801556 -0.18137316 0.05015579 -0.018772094 -0.09819727 0.12756874 -0.08526785 -0.033410873
0.010179874 0.100242786 -0.14060426 0.01738425 0.04845431 0.062174097 0.10726176 -0.09189166
0.0751465 0.10816434 -0.11542675 0.09978404 0.0337091 -0.10746079 -0.009971147 -0.038448308
-0.029589996 0.10375876 -0.015360568 0.034170505 0.121848986 0.03938734 0.0017739316 -0.04693149
0.1009648 0.06461817 0.03703666 -0.07589285 0.062155172 0.14540978 0.0033057516 -0.12885977
-0.0677238 -0.09180761 -0.12967058 0.08203406 0.11495367 0.1326427 -0.122704156 0.0104931295
0.14961621 0.048244074 0.02935047 -0.08933036 0.0684299 -0.019649005 0.03649272 0.1506931
-0.017832227 0.10416148 -0.14027281 -0.018614827 0.017909687 -0.082094006 0.0026660145 -0.09854534
-0.099678434 -0.16178273 0.1119221 0.012611198
00000000: 96df d6bd aef7 e0bd cc74 93bd d4e9 633d
00000010: ebaf 17be b5f1 e5bd ddd7 0ebe 5d98 bc3d
00000020: 173a 953b b62f e13d be59 903d 0d85 2ebc
00000030: 310b 82bd 2d81 72be c679 c2bd e4b2 493d
00000040: 6491 173e e3b9 39be 2870 4d3d efc7 99bc
00000050: a61b c9bd 61a1 023e e9a0 aebd d7d9 08bd
00000060: 7cc9 263c 174c cd3d 90fa 0fbe 6a69 8e3c
00000070: 0778 463d 44aa 7e3d 0eac db3d b231 bcbd
00000080: 68e6 993d 4485 dd3d dc64 ecbd 935b cc3d
00000090: 8e12 0a3d 6714 dcbd 065e 23bc f97b 1dbd
000000a0: b866 f2bc 797f d43d e4aa 7bbc 5ff6 0b3d
000000b0: f68b f93d 9f54 213d 4483 e83a 3c3b 40bd
000000c0: a2c6 ce3d 8856 843d c1b3 173d b66d 9bbd
000000d0: 6c96 7e3d 4de6 143e 4fa5 583b d1f3 03be
000000e0: c7b2 8abd a105 bcbd 5dc8 04be 7901 a83d
000000f0: d46c eb3d 7dd3 073e 514c fbbd 60eb 2b3c
00000100: fe34 193e 949b 453d 6670 f03c d6f2 b6bd
00000110: fa24 8c3d f3f6 a0bc 6479 153d 4b4f 1a3e
00000120: e414 92bc 9d52 d53d ada3 0fbe 1f7e 98bc
00000130: 56b7 923c e720 a8bd 4db8 2e3b 24d2 c9bd
00000140: 3524 ccbd 5faa 25be 6a37 e53d 339f 4e3c

classifier.2.weight f4 [10, 84]
-0.22788812 -0.22263642 0.088782735 -0.26988822 -0.28542992 -0.31069142 -0.21151954 -0.38395438
0.25798523 -0.65713334 0.3272495 0.39344135 -0.3197643 0.6746471 0.41899133 0.015216824
0.18204108 0.4263 -0.09990749 -0.34808278 0.26079988 -0.063632935 -0.37652114 -0.18829025
-0.13518785 -0.31468388 -0.38930523 -0.4341435 0.38409626 -0.20441397 -0.0760695 0.39026105
0.18930796 -0.47194687 0.31359357 0.40081474 0.16948333 0.21445051 0.14226453 -0.22717048
-0.18022692 0.27699193 0.039095595 -0.17115775 -0.45145836 -0.0058770655 -0.48971927 -0.07577186
-0.12645665 0.30310234 0.040525354 0.16979402 0.52922684 0.27786157 0.2453254 0.13478275
-0.21242712 -0.0076277535 0.47839436 0.3083971 -0.45689356 0.056902695 0.35701093 0.2267627
-0.077314414 -0.2706168 -0.21725518 -0.20793799 0.14506894 0.109594695 0.2717063 0.11295632
0.31796244 -0.18560316 -0.26814845 -0.13838546 -0.23341501 0.10224332 0.20626529 -0.10663553
0.07231159 0.079719074 0.37498325 0.023713721 0.32962972 -0.20878877 0.27089995 0.17790326
-0.12788114 -0.19714025 0.2755008 0.36951858 -0.071399726 -0.04351567 0.45768356 -0.11343645
0.10246628 -0.10469797 -0.23463775 -0.45374733 -0.02664766 -0.09865109 -0.3847424 -0.29007304
-0.353458 0.35375234 -0.22487687 0.12830351 0.5407054 0.15319785 -0.27440616 -0.15152624
-0.059215993 0.2514258 0.007936929 -0.14555769 -0.29470092 0.15213388 -0.09425582 -0.3251886
0.43486628 -0.175122 -0.122394964 0.20472829 -0.17631966 -0.21413082 -0.10157207 0.47746697
0.17969961 -0.020158881 0.18115397 0.33667922 0.17336321 0.31619212 -0.3103047 -0.39844567
0.35395402 -0.27302137 0.35639858 0.4133321 0.28134033 0.5029072 -0.25652367 0.35143453
0.02661992 0.19611368 0.036781613 0.052596975 0.13063821 -0.09394454 0.24157304 0.25353944
0.31412315 0.10488693 -0.10841106 0.10900675 0.10619301 0.16201472 0.2885137 0.41809392
0.47855857 -0.25035277 -0.18071507 -0.23579988 -0.23390594 0.23927924 -0.14695637 -0.17619076
-0.22147596 -0.39439076 -0.5548606 -0.17074105 0.05433657 -0.23241875 0.20041052 0.26739925
-0.28364742 0.40085408 -0.25247407 0.37631288 -0.159369 -0.24954386 -0.01818004 -0.15616503
0.3351209 0.30373538 -0.018607726 -0.2266767 -0.19504288 0.1936239 -0.4074134 -0.29598016
-0.22264042 -0.063403316 -0.10893315 0.3071726 0.4624471 0.36301294 0.13635467 -0.19041584
-0.037380923 -0.08345343 -0.3379763 0.34186107 -0.30905357 -0.13485388 0.49381715 0.0025383506
0.109781854 0.14058572 -0.026139008 0.41129783 0.3640746 -0.38329133 -0.23486657 -0.18130888
0.092241704 0.0590743 0.13460673 -0.047624927 -0.3605524 0.28926378 -0.22833462 -0.059884246
-0.06555682 -0.061873548 -0.3393006 -0.049862176 0.41467527 0.14515917 -0.29220325 -0.056803107
0.3007611 0.2852345 -0.39181226 0.14342335 0.0062515433 -0.25094405 0.09457581 0.31999138
0.03851294 0.19574495 -0.31567845 0.07605737 0.4317546 -0.18742464 0.25823897 0.31315282
-0.028435593 -0.3181239 0.27765164 0.2109852 0.33032462 -0.21114376 0.2267785 -0.29497954
00000000: 815b 69be cdfa 63be b9d3 b53d ca2e 8abe
00000010: df23 92be f212 9fbe 9498 58be ab95 c4be
00000020: a416 843e e439 28bf 3f8d a73e 2571 c93e
00000030: 25b8 a3be acb5 2c3f 0886 d63e fc4f 793c
00000040: fa68 3a3e fe43 da3e 4c9c ccbd e837 b2be
00000050: 9087 853e fc51 82bd 61c7 c0be 29cf 40be
00000060: af6e 0abe 3f1e a1be 0453 c7be 0f48 debe
00000070: 44a8 c43e e551 51be 53ca 9bbd 4cd0 c73e
00000080: f2d9 413e 05a3 f1be 568f a03e 9737 cd3e
00000090: 0a8d 2d3e ea98 5b3e cbad 113e 619f 68be
000000a0: 688d 38be e3d1 8d3e b422 203d fa43 2fbe
000000b0: 8d25 e7be 6694 c0bb 7cbc fabe 472e 9bbd
000000c0: da7d 01be 3b30 9b3e eafd 253d 7cde 2d3e
000000d0: 697b 073f df43 8e3e 9536 7b3e 7d04 0a3e
000000e0: 7f86 59be 3cf2 f9bb 1bf0 f43e 3ae6 9d3e
000000f0: f4ed e9be cd12 693d 23ca b63e 7b34 683e
00000100: 0557 9ebd 498e 8abe 2478 5ebe b2ed 54be
00000110: f48c 143e 2f73 e03d 171d 8b3e a555 e73d
00000120: f9cb a23e c10e 3ebe c14a 89be ebb4 0dbe
00000130: 5804 6fbe f264 d13d 3537 533e bb63 dabd
00000140: 1918 943d c143 a33d cefd bf3e 4743 c23c
00000150: 3ac5 a83e b9cc 55be 66b3 8a3e 462c 363e
00000160: 46f3 02be 22df 49be 710e 8d3e 8a31 bd3e
00000170: 053a 92bd 7d3d 32bd 8055 ea3e 5f51 e8bd
00000180: d7d9 d13d e46b d6bd e144 70be 9251 e8be
00000190: 324c dabc 9509 cabd f5fc c4be 7484 94be
000001a0: 72f8 b4be 071f b53e 1f46 66be ff61 033e
000001b0: ab6b 0a3f e6df 1c3e f77e 8cbe b229 1bbe
000001c0: 788c 72bd e2ba 803e e509 023c 130d 15be
000001d0: 0ae3 96be fcc8 1b3e 3209 c1bd 1f7f a6be
000001e0: cba6 de3e 2e53 33be 36aa fabd 4ba4 513e
000001f0: 248d 34be 1c45 5bbe 0405 d0bd 8d76 f43e
00000200: 2d03 383e 3d24 a5bc 6d80 393e 3861 ac3e
00000210: 2086 313e efe3 a13e 42e0 9ebe 1201 ccbe
00000220: 7639 b53e 75c9 8bbe e079 b63e 44a0 d33e
00000230: d70b 903e 87be 003f 1257 83be 3aef b33e
00000240: 0512 da3c 06d2 483e 51a8 163d ed6f 573d
00000250: 06c6 053e ff65 c0bd ec5e 773e eccf 813e
00000260: c0d4 a03e f5ce d63d 9e06 debd ee3e df3d
00000270: b97b d93d 30e7 253e 11b8 933e 6810 d63e
00000280: a105 f53e 3d2e 80be 5f0d 39be 8675 71be
00000290: 0a85 6fbe 9e05 753e bb7b 16be 5a6b 34be
000002a0: 98ca 62be 96ed c9be 580b 0ebf bed6 2ebe
000002b0: 0690 5e3d 2eff 6dbe 6a38 4d3e 8ee8 883e
000002c0: 3c3a 91be bf3c cd3e 4844 81be 15ac c03e
000002d0: a131 23be 6d88 7fbe 4fee 94bc bae9 1fbe
000002e0: f794 ab3e 3483 9b3e 3b6f 98bc f01d 68be
000002f0: 52b9 47be 5845 463e 7d98 d0be b68a 97be
00000300: dafb 63be 99d9 81bd 5818 dfbd ba45 9d3e
00000310: dec5 ec3e d5dc b93e 8fa0 0b3e 5ffc 42be
00000320: bd1c 19bd a2e9 aabd 3b0b adbe 6a08 af3e
00000330: 453c 9ebe 2317 0abe 9ad5 fc3e 755a 263b
00000340: 4fd5 e03d b4f5 0f3e 7921 d6bc a195 d23e
00000350: fc67 ba3e c33e c4be dd80 70be 09a9 39be
00000360: 38e9 bc3d e5f7 713d 59d6 093e 5b12 43bd
00000370: 539a b8be 621a 943e 8dd0 69be 2f49 75bd
00000380: a742 86bd 1e6f 7dbd cfb8 adbe 483c 4cbd
00000390: 5150 d43e 9ba4 143e aa9b 95be 60aa 68bd
000003a0: 5cfd 993e 420a 923e 9e9b c8be 92dd 123e
000003b0: bfd9 cc3b bd7b 80be f6b0 c13d e9d5 a33e
000003c0: bfbf 1d3d 5d71 483e 9ba0 a1be f7c3 9b3d
000003d0: f00e dd3e 3fec 3fbe e637 843e 9155 a03e
000003e0: c3f1 e8bc 23e1 a2be 5b28 8e3e 810c 583e
000003f0: 4f20 a93e 1236 58be a038 683e 8f07 97be

classifier.2.bias f4 [10]
-0.1082628 0.121484384 0.12237312 0.050545674 0.0663529 -0.052264623 -0.09838064 -0.0128540415
-0.041659728 0.08935585
00000000: e3b8 ddbd cecc f83d c29e fa3d fb08 4f3d
00000010: 07e4 873d 6e13 56bd ca7b c9bd c299 52bc
00000020: 64a3 2abd 3300 b73d
