01_introduction/final_exercise/model.pth (torch, 177875 bytes, 10 tensors)

feature_extractor.0.weight f4 [6, 1, 4, 4]
00000000: 0765 613d 9212 883e d5cc 633e 34a2 053f
00000010: ddba b63e adf6 41bc 49ef 04bd f0b2 803e
00000020: e0f5 31be 1d0c 80be b084 87be e596 50be
00000030: 210d 42be d200 debe 067c 0dbf 3b7d d3bd
00000040: aaba 0fbc 125f 7b3e 5f67 2b3e 6065 013f
00000050: 2487 c1be ba06 e8be dc2f 88be 9d16 093f
00000060: 87e8 ddbe 374b cdbe 984e 2abe 69ae da3e
00000070: 92e5 13bf 5c75 66be bd24 7c3d 97ef ee3d
00000080: 57a4 bd3e 3648 143e 83bb 7a3e 24e1 ce3e
00000090: cc44 bf3c 353d 2dbe 287b eebd 0eb2 fb3d
000000a0: c2b8 edbd e10f f1be ca08 03bf 0021 833e
000000b0: b006 b9be 627d 12bf e94e 18bf 6b99 523e
000000c0: 0dfd 9bbd 70c8 a8be 4329 debe afcf d5be
000000d0: 4e0e e6bd 56cf 0fbf be96 dcbe d4de ebbb
000000e0: 835a 1f3e d485 85be 8d1a 34be ad44 b53e
000000f0: 4a72 c53e 8297 af3e 10cf 003f 93a8 4e3e
00000100: 5d3e b5be f7ec d1be 0c83 1dbf 06ea 663e
00000110: d814 0f3d 33c0 00be 5e81 28bf d748 a6be
00000120: 5e17 b13e 4f94 4c3e 353b f2bc ecce 64be
00000130: 4853 e53e 817d c53c daa0 84be f01b 91be
00000140: 5f90 1b3e b259 2c3e 6e96 d03d 5036 e93a
00000150: 8dc9 553c b7b8 b3be 2db9 0dbf f70f efbe
00000160: b27b 96be be37 01bf 6c68 a3be 17f2 a33e
00000170: 4854 aa3d 24f3 15be 8f92 f23e d095 2b3f
0.055027988 0.26576668 0.22246106 0.5220063 0.3568944 -0.011838597 -0.032454763 0.25136518
-0.1737895 -0.25009242 -0.2646842 -0.20370062 -0.18950321 -0.4336 -0.5526737 -0.1032662
-0.0087725315 0.24547985 0.16738652 0.5054531 -0.37798417 -0.45317632 -0.26599014 0.5355013
-0.43341467 -0.40096447 -0.16631544 0.4271119 -0.5777217 -0.22505707 0.061558474 0.11666792
0.37039444 0.14480671 0.24485593 0.40406144 0.023348235 -0.1691788 -0.11644584 0.122898206
-0.116075054 -0.47082427 -0.51185286 0.25611115 -0.36137915 -0.5722257 -0.5949541 0.20566337
-0.07616625 -0.32965422 -0.43390855 -0.41760013 -0.11233197 -0.56175745 -0.43083757 -0.007198194
0.15561871 -0.26078665 -0.17588253 0.35403958 0.38563758 0.3429528 0.5031595 0.20181493
-0.35399142 -0.41001102 -0.61528087 0.2255021 0.034931988 -0.12573318 -0.658224 -0.32477447
0.3458814 0.1997845 -0.029569248 -0.2234456 0.447901 0.024107696 -0.2590397 -0.28341627
0.15191792 0.16831091 0.10184942 0.0017792676 0.013048542 -0.35101864 -0.5536068 -0.46691868
-0.29391247 -0.5047568 -0.31915605 0.32020637 0.083168566 -0.14643532 0.4737744 0.6702547

feature_extractor.0.bias f4 [6]
00000000: da98 b1be bd7a 69be 5b7e bbbe ec00 08bf
00000010: da7d b83e 0e86 633e
-0.3468693 -0.22800727 -0.3661984 -0.53126407 0.36033517 0.22219107

feature_extractor.3.weight f4 [16, 6, 4, 4]
00000000: 618b 133d 7daf 0fbe dd91 c8bc 4782 983d
00000010: 1b1a debc 9082 38be 8314 623e ee8d 053e
00000020: 521c c4bc bab0 303e 9957 d13e 2a2f 85be
00000030: f745 413e de6d 8e3e 5189 ea3d d951 7dbe
00000040: e02c b93d 0261 0e3e 76a0 ee3d a8ea 643e
00000050: 727e 873d f532 cdbd 7abe 79be 9a5c fd3d
00000060: 16f1 323e d178 ddbe 9993 74be 5ac1 c73e
00000070: bc8f 9dbd 6424 0bbe af7d cd3e 9778 e13e
00000080: 13f1 273d af5f c33d fb86 3d3d 7160 0c3e
00000090: 913d 253e 6eba 43be 4bc1 e4bc 805d 563e
000000a0: ab8e acbd 9663 08be 3ed5 b03e c956 a6bc
000000b0: c58d 05be cc3f ad3e da18 543e 1795 92be
000000c0: 582c 433e 1f16 383d d988 3c3e 7291 d43d
000000d0: 0c79 c23c fd07 e1bc c89c b9bc 3b54 61bd
000000e0: bdac e13c 4122 adbe 66f6 e43d 912e 873e
000000f0: db34 97bd 00c9 6abe f12a fc3e 3c29 e8bd
00000100: 5d08 363e 57c8 463d 1ed5 b53e bf9c 1d3e
00000110: 8a11 383e 02b8 0e3e a963 313e b4c3 35b9
00000120: 495b 073e 6a07 5b3e 16a4 853c 2098 02bf
00000130: 6b8a 153e dd90 7ebd 271a f1bd 3d24 e2be
00000140: 74ef 833e cd33 bd3c 806e 033d c7b4 3e3e
00000150: 3702 b63d c442 19be c598 0e3e 7b5f a53e
00000160: bb1d f43d 71dd 62bc 4710 113f 8236 f23e
00000170: c111 11be c75a 913e 7a35 143f 60a2 91be
00000180: aa84 0dbe a4e5 923d 8359 8a3c 012d 92be
00000190: 81f4 cabe 9c1f 793d 4536 0b3e 09e5 8bbe
000001a0: cf76 f8be 45bf fd3d c068 4c3e d696 a83e
000001b0: 9502 ebbe 5fc2 e03c 6aad aa3d 285d 493f
000001c0: 5f75 01bd 58f0 a6bd e63d e5bd 753b 9dbd
000001d0: 360f 90bb 97f5 aabe f013 f43d 9057 c7bd
000001e0: c893 13be 93d7 88be 0c37 033e 7481 a33d
000001f0: 0f6d acbe b780 b1bd 4ee3 e339 20ec 32bd
00000200: 5a9f 6dbd 479b 22bd 44df 3dbc 5ccb 10be
00000210: 5593 b1be 21fc 043d 8e76 e93d 7042 14be
00000220: 58af aabe 14dc 353d 0a72 943e b686 6c3e
00000230: 5b52 00bf 09ee a33d 633e cbbc 0c27 213f
00000240: fca6 e9bd 4350 80be 71c6 13be fe19 923d
00000250: f6b9 98be adb2 9f3d 4bcb dbbd dad9 8fbc
00000260: bb89 9cbe f126 bd3e f216 903e 0fae 86be
00000270: 70b8 c0be 4706 8f3e 6f43 8d3e a66a 303e
00000280: 93a8 21be dfa8 0abe d67f 22be 836b 5a3d
00000290: b10c 56be 9361 133e 0fab 92bd c739 143e
000002a0: db1d 2abe 1ca2 7f3e 21c9 813e 8d3e 5d3e
000002b0: b3f3 b8bc 681e 053e 4597 013f fc29 dc3e
000002c0: a1ad 28be 6b4c 573b ef14 2a3e baef 1b3e
000002d0: 0a46 a4bc b577 883e 8722 5a3e d862 4b3e
000002e0: 4453 a8be 949c a83e 4467 3b3e 1028 7bbc
000002f0: 869f d2be 9ebf 2d3e 072b 123c 4a11 3c3e
00000300: 2102 68be 1a5c 87bc 9228 bfbd d051 813e
00000310: 5515 f13d cebc f0bc b4a8 babe 1556 e63e
00000320: 2eda 283d 94bd 6abd 1300 dbbd c23a 8f3d
00000330: d949 50be ee5e e2bd 629b 0e3e 111e 253d
00000340: 22da 813e a93f bd3d ab41 b53e 9ed8 e13e
00000350: e441 583e aa9a e53e 6d91 893e 5ae0 8d3e
00000360: bea5 e03b 22c2 e03e 3414 a03e 8a25 6e3d
00000370: c5ba 59be 3b73 06bd fd9c 343e 6e4a dd3e
00000380: e70f 7b3d 7e12 1a3e ba07 a63d f397 293e
00000390: f096 793e cd34 cf3d 5c82 9ebd 6bb0 933e
000003a0: bdbf e2bc 0fa0 803e a2ba 413d 6cc9 083e
000003b0: a789 31be 3e8b 2fbe a436 263e 8af5 933e
000003c0: 4738 8abd 025f ddbd 3e5b 9b3d c34c 7ebd
000003d0: 113e 2f3d be3a 913d c294 4a3e 1f26 a23e
000003e0: 8af6 92bc c71c 043e dbac cf3d ef35 fe3e
000003f0: fcf6 bf3d 1846 ab3d 4ab1 103e e57e bc3e
0.036021594 -0.14031787 -0.024483616 0.074467234 -0.027112057 -0.18018556 0.22078137 0.13042423
-0.023939285 0.17254916 0.40887144 -0.26012546 0.18874346 0.27818197 0.11451972 -0.24738254
0.09041762 0.13904193 0.11651699 0.2235514 0.066159144 -0.10019485 -0.24389067 0.12371178
0.1747478 -0.43256238 -0.23884429 0.39014703 -0.07693431 -0.135881 0.4013495 0.44037315
0.04100139 0.095397346 0.046271306 0.13708664 0.16136767 -0.19114086 -0.0279242 0.20934105
-0.08425649 -0.13319239 0.3453769 -0.020305054 -0.13042362 0.33837736 0.20712605 -0.28629372
0.19059885 0.04494297 0.18411578 0.10379304 0.02373936 -0.02746963 -0.022657767 -0.05501197
0.027548188 -0.33815196 0.11179809 0.26402715 -0.07383128 -0.22928238 0.49251512 -0.1133599
0.17776628 0.048530903 0.35514158 0.15391825 0.1797544 0.13937381 0.17323174 -0.0001733441
0.13218416 0.21389547 0.016313594 -0.51013374 0.14603584 -0.06214987 -0.11772566 -0.44168273
0.25768626 0.02309599 0.032087803 0.18623649 0.08887141 -0.14966875 0.13925464 0.32299408
0.11919733 -0.013846741 0.5666546 0.4730721 -0.14166929 0.2838957 0.578941 -0.28444195
-0.13820139 0.07172707 0.016888386 -0.2854996 -0.39639667 0.06082116 0.13594921 -0.27323177
-0.48528144 0.123899974 0.19961834 0.3292758 -0.45900407 0.027436433 0.08333857 0.7865777
-0.031606074 -0.08151311 -0.11193447 -0.07677356 -0.0043963445 -0.33390495 0.11917865 -0.09733498
-0.14411843 -0.2672697 0.12813967 0.079836756 -0.33676955 -0.086671285 0.0004346617 -0.043682218
-0.058013298 -0.039698865 -0.011588875 -0.14140075 -0.34682718 0.03246701 0.11399566 -0.14478469
-0.33336902 0.044399336 0.28993255 0.23098263 -0.50125664 0.08004386 -0.024810022 0.62950206
-0.11408803 -0.25061235 -0.14431168 0.07133864 -0.29829377 0.077977516 -0.107321344 -0.017559934
-0.3057383 0.36943772 0.28142506 -0.2630467 -0.37640715 0.27934477 0.2759051 0.17228183
-0.15786962 -0.13540982 -0.15869078 0.053325187 -0.20903279 0.1439269 -0.07161533 0.14475165
-0.16612951 0.24964184 0.25348762 0.21605892 -0.022577142 0.1299988 0.50621444 0.43000782
-0.16472484 0.0032851945 0.16609548 0.15228167 -0.020052928 0.2665383 0.21302234 0.19861925
-0.32876027 0.3293196 0.18301111 -0.015329376 -0.41137332 0.16967627 0.008921391 0.1836597
-0.22657062 -0.01652341 -0.0933391 0.2525773 0.11771647 -0.029386904 -0.36456835 0.4498755
0.041223697 -0.057309702 -0.106933735 0.06993629 -0.2034067 -0.11053263 0.13926461 0.040311877
0.25361735 0.09240658 0.35401663 0.44110578 0.21118885 0.44844562 0.26868764 0.2771023
0.0068556955 0.43898112 0.31265414 0.05814127 -0.21262653 -0.032824736 0.17638011 0.43220848
0.061294463 0.15046117 0.081069425 0.1656187 0.24373984 0.10117493 -0.07739708 0.28845534
-0.027679319 0.25122115 0.047297128 0.13358086 -0.17337666 -0.1714296 0.16231781 0.2889827
-0.06749015 -0.10809137 0.075857624 -0.062084924 0.0427838 0.07091282 0.19783309 0.3166971
-0.017939825 0.12901603 0.101403914 0.49650523 0.093732804 0.08362979 0.1413013 0.36815563

feature_extractor.3.bias f4 [16]
00000000: aa6d a93e e9e6 863e 1b93 d9bd 3145 e73d
00000010: 9e1f c0bd 60b4 16be 3333 6a3d db29 4dbd
00000020: 8927 bcbd e34f 0e3e 3d70 aabd ebc7 cfbd
00000030: 1472 033d c8ba 12be 9a67 2bbd 60f3 d5bd
0.3309148 0.26348045 -0.10623761 0.11292494 -0.093810305 -0.14717245 0.057177734 -0.050088745
-0.09187228 0.13897662 -0.08322189 -0.10145553 0.032091215 -0.14329064 -0.04184685 -0.10446811

feature_extractor.6.weight f4 [120, 16, 4, 4]
00000000: 71cf 173d 32bd afbd 69fb 013e a298 1ebd
00000010: 3f23 5c3d 86d0 fc3d 5ea6 20be 0d08 443d
00000020: bd41 c13d ebdd 73bd b9e2 f63d 6d5a bcbc
00000030: 29eb f93b 633d 193e 61c2 b7be 3295 a03d
00000040: 4072 3cbe 0408 03be f5de 4c3e 7956 f03d
00000050: 3ff5 863d 2100 c2bd 0b12 a03d 07b0 c63e
00000060: 5ddf 3dbd b59b 243e 9a02 063e e65a 973c
00000070: ff4e 4ebe bdc0 963c 56ba da3e ba59 bb3c
00000080: a915 ea3c b3b9 4f3e de37 0dbe ed53 babd
00000090: e2df 8d3c 0bf6 fdb9 19d6 08bd cd4b 5fbe
000000a0: 8da5 06be 60a7 b73d f236 d1bd 0d59 7fbd
000000b0: dd2f 9ebc 4b96 303e 7ac0 ab3e f066 7c3e
000000c0: 10df 9bbd 6f40 a43e 766f b03c 297c 403e
000000d0: 6876 913b 73b7 3e3e 7e8b fd3d 4598 57bd
000000e0: e4a3 b53d 14e8 393e e45a 953b 85ff 203e
000000f0: 8b06 673e 77dd c2bd a3f8 5cbe 95a0 ddbe
00000100: 4de4 1cbe afee 7a3e 30b3 79bc d659 f13d
00000110: 3741 cbbd 22bb c93d 112f 3d3e 92b9 fdbd
00000120: d40f f0bd 4d92 693e e2ae 11be b418 ab3c
00000130: ee71 d83d d156 a03d 80b3 803d 929c 64be
00000140: 6eda 95ba c982 3d3e 5a9d f63d d3e9 a83d
00000150: 6a29 b3bd dab8 44bc 2489 3cbd cc3f 4cbe
00000160: cea3 6abe b87f 45bd 087b 8f3e 13da 3a3e
00000170: 2a0a a1bd bdee 983d 740a c73d 48dd 763e
00000180: 6ac3 eb3d 752a cb3d b22f ffbd 68b9 463a
00000190: e833 fabd 9b84 3bbe 7173 873d c638 233e
000001a0: 35cc 973d 5767 273e 3a2b c43d 9770 1bbe
000001b0: 5eb3 54bd b62e a83c c8c0 42be c387 a0be
000001c0: 8037 a03d 547f 4a3e 425f 393e dd37 a9bd
000001d0: 97f2 eb3d ac4a 733e 62ca e7bd 88ff bbbd
000001e0: 7716 783e abf6 6e3d d000 9abd bcef 54bd
000001f0: 512c b93e cb12 2abd a318 3e3e 60ef 183e
00000200: a9ea dbbb c562 a4bc 0a68 3e3e cd67 043e
00000210: 7f48 05be c74f aebd 632b 0cbe a8b4 24be
00000220: 783d 8bbe 54b3 b6be d3f9 1a3e 138d 313e
00000230: 9abd b3bd f557 6b3d cf96 88bc f140 4c3e
00000240: bad7 43be 81be 3e3e 19da 8c3d 45eb 063e
00000250: 6503 853c 2187 e0bb 3437 a83e 961c 42bd
00000260: da6b 2abc c718 a43e 6002 bdbe 9fdd 743e
00000270: 245a 933e b90c e3bd 6ae9 1dbe df52 c5be
00000280: 9cf8 72bd f64b 0b3d 5912 263e af4a e2bd
00000290: b79d 733d cd8d 473e 5739 71bb 1b32 8c3d
000002a0: f3f6 f5bd db6d 753d f25f 7d3d 2973 843d
000002b0: d4a7 873e 2a08 a4bc 51c8 80bd d197 4c3d
000002c0: 42c7 673d 7a4b e6bd 234e 31be c9fe ef3d
000002d0: 4806 933d acd7 713d de09 22be 16ab d73d
000002e0: 703f 4abd edf0 cebd 22f6 363e 5973 b23d
000002f0: 4cf0 ae3d ef3b 8e3d e52b 84bd f90c 20bd
00000300: cf6f 013d 40e7 bc3d aaa9 1fbd 9f97 a93d
00000310: 66b2 5e3d b609 de3d 0c7e 013e cecf a83d
00000320: 9147 d73d db7f c13e 7b40 fbbd 8b08 b6bd
00000330: 6385 d23d ffb7 b83d 17d4 56bc cd24 ebbd
00000340: 8767 d0bd 1670 a43e 3936 18bd 8b1d d93c
00000350: 0f5c 183e bc1f 9d3d 5adf 2f3e 0a1d 16bd
00000360: 613f 363d 8b9b 723e 2383 2ebd f3eb 953d
00000370: ba43 913d 0ed9 17be 7b5a 823d 0fe7 8ebd
00000380: 4991 c2bd 8fba 61be 31f4 eebd efe0 73bd
00000390: 51ff 36be 007c 9d3d 22d8 28bd 2f79 e9bd
000003a0: b820 2c3d 3a10 b4be f671 e83e 3ca0 243d
000003b0: f32d 9cbe 5cef 843e e054 ad3e 3153 213e
000003c0: a0e4 c6ba 5f33 723d 3f06 e8bb 89f7 4a3c
000003d0: 0095 fcba d46d c1bc 0413 bcbc 0fb5 123e
000003e0: 4b3f 743d 8fe2 9cbd 5f25 fdbd b28d f03d
000003f0: e0f0 643d c2e7 f0bd e6f2 69be 95a6 64be
0.037063066 -0.08581008 0.12693562 -0.03871978 0.05374455 0.1234446 -0.15688464 0.04785924
0.09436367 -0.05953781 0.12054963 -0.022992337 0.00762691 0.14964823 -0.35890487 0.07840957
-0.18402958 -0.12796026 0.20006926 0.11735243 0.06589746 -0.09472681 0.078159414 0.38806173
-0.046355594 0.16075023 0.1308693 0.018475961 -0.20147322 0.018402452 0.42720288 0.022869933
0.028574781 0.20285682 -0.13790843 -0.09098039 0.01731867 -0.00048439237 -0.033407304 -0.2180626
-0.1314909 0.08967471 -0.10215558 -0.062340785 -0.019309932 0.17244832 0.33545285 0.24648643
-0.07610905 0.3208041 0.021537524 0.18797363 0.004439164 0.18624668 0.12380122 -0.05263545
0.0886915 0.18154937 0.004557954 0.15722473 0.2256109 -0.09514897 -0.21579222 -0.43286577
-0.15321465 0.24505113 -0.015240476 0.11784713 -0.09924548 0.09850146 0.18474986 -0.1238891
-0.11721769 0.22809716 -0.14226869 0.020885803 0.10568605 0.07829059 0.06284237 -0.22325352
-0.0011432895 0.18506922 0.12041731 0.082477234 -0.087481335 -0.012006963 -0.046029225 -0.19946212
-0.22914049 -0.048217505 0.28023553 0.18247251 -0.07863267 0.07467411 0.09718791 0.2410785
0.11511882 0.099202074 -0.12460269 0.0007580728 -0.122169316 -0.18312304 0.066138156 0.15939626
0.07411996 0.16348015 0.09578557 -0.15179668 -0.05192887 0.020530086 -0.19018853 -0.31353578
0.07823086 0.19775134 0.18102744 -0.08262608 0.1152088 0.23758954 -0.11317898 -0.09179598
0.2422732 0.05834071 -0.07519686 -0.05198644 0.36166623 -0.04152183 0.18564086 0.14935064
-0.0067113233 -0.020066628 0.18594375 0.12930222 -0.13015936 -0.0851131 -0.13688426 -0.1608454
-0.27195334 -0.35683692 0.15134363 0.17338972 -0.08776398 0.05745693 -0.016673474 0.19946648
-0.19125262 0.18627359 0.06877536 0.13175686 0.01623697 -0.006852046 0.32854617 -0.047390543
-0.01040169 0.32050154 -0.36915874 0.23912667 0.2877971 -0.11086411 -0.15421072 -0.38539788
-0.059319124 0.03400799 0.16217937 -0.11049401 0.05947658 0.19487686 -0.003680786 0.06845494
-0.120099925 0.05991922 0.06185908 0.064672776 0.2649523 -0.020023424 -0.06288207 0.04994947
0.05658651 -0.11244865 -0.17314963 0.11718518 0.071789324 0.05904357 -0.15824077 0.10530679
-0.049376905 -0.10104547 0.1786733 0.08713407 0.08541927 0.06945025 -0.06453685 -0.03907487
0.03160077 0.09223795 -0.038980164 0.082808726 0.054369353 0.10841696 0.1264574 0.082427606
0.10511697 0.37792858 -0.12268158 -0.08888348 0.10279348 0.090194695 -0.01311209 -0.114816286
-0.10175996 0.32116765 -0.037161086 0.026503345 0.14878868 0.076720685 0.17175046 -0.036648788
0.044494037 0.23692147 -0.04260553 0.07320394 0.07092996 -0.14828894 0.06364914 -0.06977665
-0.09500367 -0.22043823 -0.116676696 -0.059540685 -0.17870833 0.07689667 -0.041221745 -0.11400067
0.04202339 -0.3516863 0.45399445 0.040191874 -0.30503806 0.25963867 0.33853817 0.15754391
-0.0015174337 0.059131023 -0.0070808227 0.012388119 -0.001927048 -0.02361194 -0.022958286 0.14326881
0.059630673 -0.076604 -0.123606436 0.11745776 0.05589378 -0.11762954 -0.22846565 -0.22329171

feature_extractor.6.bias f4 [120]
00000000: 975c 81bd a65d 43be 284f 54be 251c db3c
00000010: d45c 1ebd 5439 2f3e 2f9c b8bd 96b8 f73d
00000020: f462 cc3d 1686 913d a945 163c 00ed b6bd
00000030: 26f1 d73b 3eb4 2a3d edee 723d bca6 c53d
00000040: 7599 3bbd 457a 33be a15c 65bd 44ff 9d3d
00000050: 5bec 6ebc 1d97 2cbe dbb4 e43d c8a5 673d
00000060: 16e1 323e e1c8 2b3e 8d5a 82bd 3280 1cbd
00000070: 9dcc f53d 05c1 f33d a27a 8ebc 870c 30bd
00000080: 0af6 06be 80ec 84be 5365 e9bd 5537 943c
00000090: d7d5 05bd 16a4 983d 2204 9dbd d4f2 8f3d
000000a0: e083 fabb 3c1e 63bd b627 1e3d a288 c93d
000000b0: 1e1b 533c 58a1 b6bd bc49 86bd bbb6 d73c
000000c0: 5f0f 063e 2310 983c bad8 f23d d537 583d
000000d0: 9ce4 eabd 6a47 9f3c f37b af3c 4b94 cfbd
000000e0: 0e7d babd a97f 913e bb04 8f3d 6a37 91bd
000000f0: edea 79bb f09a c9bb a1ac 11be 41c8 3d3b
00000100: 9ca0 cd3c 2fdc afbd 3aae 70bd 77ab bc3d
00000110: a1d4 d53c 0c1f 933c 2e99 02be 8a4b 63bd
00000120: 1c73 1c3d 07a4 373c 2f6e f7bb 1200 c6bc
00000130: bfb5 acbc 8c2a e03c 3604 07bd 3938 8b3d
00000140: 7a91 d8bc ec62 a63d 467e d5bd 1561 d6bc
00000150: f436 00be 2d4f ce3b 2729 833d ab1c eabd
00000160: d8b5 123d 1696 9f3b 6637 1c3d a887 47be
00000170: 8e98 a83c 2d26 d33c a65b 1fbe c79c 5cbd
00000180: be5d dfbd 58f6 8cbc 8701 c63d 03fe 31be
00000190: 884d 063e 118d 913d 65fe 033e 9a2d 3fbd
000001a0: 76cb 183e 6537 503d 7d94 fabd d8cb 1d3d
000001b0: 1c9a 803d 7cac 573d d8d1 a53d 84a6 21be
000001c0: a024 e53c 342b d53c fca1 573c dd2e cd3d
000001d0: 24a1 2bbd 1199 563e 313b 5fbd 2e5c 83bc
-0.06316488 -0.19078693 -0.2073332 0.026746819 -0.038662747 0.17111713 -0.09014165 0.12095754
0.09979811 0.07105653 0.009171882 -0.08931923 0.0065900264 0.0416758 0.05930989 0.09650943
-0.045800645 -0.17527111 -0.05599654 0.07714704 -0.014582719 -0.1685452 0.11167308 0.056554586
0.17468676 0.16775848 -0.063649274 -0.038208194 0.120019175 0.1190205 -0.01739246 -0.042980697
-0.13179794 -0.25961685 -0.11396279 0.01809279 -0.032674637 0.07453172 -0.07666804 0.07028738
-0.0076451153 -0.055448756 0.03861209 0.09840514 0.012884883 -0.08917493 -0.065570325 0.02633225
0.13091801 0.018562382 0.118577436 0.05278762 -0.11469385 0.019443233 0.021421408 -0.101357065
-0.091058835 0.2841771 0.06983324 -0.070906475 -0.0038134411 -0.006152503 -0.14226009 0.0028958472
0.025100999 -0.085869186 -0.058759905 0.09212392 0.026102366 0.01795914 -0.12753746 -0.05549196
0.038195714 0.011208541 -0.0075509767 -0.024169955 -0.021082757 0.027364038 -0.032963 0.06797833
-0.026436556 0.081243366 -0.10424475 -0.02616934 -0.12520963 0.0062960596 0.064043336 -0.11431249
0.03581795 0.0048701866 0.03813877 -0.19485343 0.020580556 0.02577504 -0.15562305 -0.053860452
-0.10906552 -0.01720731 0.0966826 -0.17382054 0.13115513 0.071069844 0.12890013 -0.04667435
0.14921364 0.05083408 -0.12235353 0.03852448 0.06279394 0.05265473 0.08096665 -0.15786177
0.027971566 0.026021577 0.013161179 0.10018704 -0.041901723 0.20956828 -0.05449981 -0.016035166

classifier.0.weight f4 [84, 120]
00000000: a272 823e 36d5 6fbd 50f4 a33d bb66 573e
00000010: 5802 74bc ebf5 47be 995f 373d 05d5 b5bc
00000020: f304 933c fc85 8b3d 707c a0be ff34 3f3d
00000030: 8153 c9bd 7c1e 27be 260b 45be e932 de3d
00000040: e6d1 c03e a7bb cb3e ae47 3c3d 5630 b93e
00000050: 5641 493e 2101 7c3e a702 e1bd 0418 bbb9
00000060: d42e bcbe 954d 39be f51a 26be ecee 66be
00000070: 2495 d8bd 981a f83b af93 833c 5196 8abe
00000080: 84ec 883b 82b6 6a3e d7da 07be 5c52 0bbe
00000090: 38e6 61be 1f23 49be 292a 36bd 4fc6 82be
000000a0: 3a8e b83e e5de 02be c389 49be 9652 09be
000000b0: 4e6e 5b3e 46f0 bf3e a1ad 3a3e 8496 a8be
000000c0: e7d6 fa3b ae07 c0bd bddb dfbc 2fb2 0e3d
000000d0: c66a a73e 01c9 1ebd a0f2 223d c71f 1f3e
000000e0: f365 143d 34b3 febc 4f99 14be 54b9 9d3d
000000f0: beb8 2b3d e54e c0bd f93d 353d e7ad 1fbd
00000100: 341d 523d 6692 103d e97f b83d 1403 75bd
00000110: 4548 033e d70c 1e3e 1144 2abe 033c 173d
00000120: 8fd7 693e d225 8ebb 1a2e 113e b218 cabc
00000130: 85b3 b4be 8364 253e 407c 0b3e 2ca5 813e
00000140: 78b0 89bd 3c80 83be 1b0a 783e 809c ad3d
00000150: 30bc 3abe d907 43bc 26c8 1e3e fdbc ab3d
00000160: 99cd 72be 65a2 28be 8454 0abd 5d66 083d
00000170: c0d4 15be 1bb0 0f3e cbe4 c23d 96a5 853c
00000180: c232 06bb 76a8 3e3e eeb6 2e3e 9e30 09be
00000190: 2096 4fbe 2d93 513d 697e 273e 99dd d73c
000001a0: d05c dbbd 2795 c4be 34ca 973d 866e 68be
000001b0: 3b0e 183c 8366 2cbe 25e4 3d3d fd27 1c3e
000001c0: f72f 84bd 9ce9 a1bd 87ff 1e3d 40e6 89bd
000001d0: 7203 35be 0451 923d b296 193d 2fc7 a83d
000001e0: f070 c2bd 6c40 e8bd 4887 96bc 60cc 8a3e
000001f0: 3c08 0abe fd44 343e 30fb d03d a9bb 65be
00000200: 2902 24be 7252 6d3c e471 bd3d 9de6 f63d
00000210: 1962 96bc b677 353e 700e 95be 729a 32be
00000220: dc52 27be a28a 0ebd 142d 373c 1a17 92bd
00000230: 29e5 b43c 18f4 8e3d d261 34be 43fd 293e
00000240: 1fa6 e23c 7248 74be 1006 bd3e eb47 95be
00000250: 7c88 64bd d099 11be 57f0 a4be 2675 763e
00000260: 6c23 213e fad6 6ebe b1ea 9a3d 74f4 543e
00000270: 15f0 c13e 5f29 6bbd 366d 833e cbdb f6bd
00000280: a65b 4dbe 09e2 803e b4ab 7a3e aa13 e2bd
00000290: 75c2 fd3c 92e8 393d 35ca 31be 386f ad3e
000002a0: 1fba d83c d7bf 703e d61e 5abe 88d2 103d
000002b0: 01c8 353c 1ebf 90be 9ed7 233e b778 fd3c
000002c0: 3d36 2f3e cf78 91be ffd0 713d 67be efbb
000002d0: 805e 0dbe 447a 173d 1eca cd3d b3c7 e4be
000002e0: 9aab 25bd f527 71bd 4c11 0e3d 7fc5 1cbe
000002f0: 7048 143d 2c9b 7bbe 45b1 2ebd 79e1 96bd
00000300: 52c6 953e b337 7b3c dd3c c8bd 0bad 1b3d
00000310: a21f f73d e10e 523e c5ea 633e d5e2 3dbe
00000320: 9620 afbd d7a0 13be 3806 bc3d 4041 af3d
00000330: 8c25 2a3e 6c1a 443d d266 18be 5ed9 243d
00000340: f17c 973c a498 533b e948 433e f331 6c3e
00000350: 9518 063b ae34 37bd 5086 b93e dbf9 573e
00000360: 10d3 6ebd e1fa f3bd deb8 f5bc 1530 e43d
00000370: 60d3 59be 603c 133d f75d 19be 1824 a93b
00000380: ff55 ac3d 5f75 993e 6509 f83d 1f25 733e
00000390: 0161 0f3e f155 b13d a5fb 16be 6a2f f2bc
000003a0: 8964 443e 4c51 523e b64b ccbd 329d a1be
000003b0: a5ff dc3c b942 78be 9cb7 3bbe 4a2d 8ebd
000003c0: d2a4 593c f188 3d3e e846 02be afbe d7be
000003d0: f8fa 493d 764f 81be c8c2 35bb c851 8c3e
000003e0: 4043 d93c ee70 36be 9eb3 2f3e e9f9 77bd
000003f0: fbaa c93d 8af5 49be f594 a1bd e1f9 07be
0.25478083 -0.058552943 0.08005583 0.21035282 -0.014893137 -0.19527404 0.044768903 -0.022196302
0.017946696 0.06812665 -0.31344938 0.0466814 -0.0983038 -0.16320223 -0.19242534 0.10849554
0.3766014 0.39791605 0.045966797 0.3616969 0.1965383 0.24609806 -0.10986834 -0.00035685312
-0.36754477 -0.18096001 -0.16221221 -0.22552079 -0.10575321 0.0075715296 0.016061632 -0.27067807
0.0041785855 0.22921184 -0.13267075 -0.13605636 -0.22060478 -0.19642304 -0.0444738 -0.25541922
0.3604601 -0.1278034 -0.19681458 -0.1341041 0.21428797 0.37488002 0.18230297 -0.32927334
0.007655013 -0.09376465 -0.027326459 0.034837898 0.3269865 -0.03876591 0.039782166 0.15539466
0.03623004 -0.03109131 -0.14511608 0.07701364 0.04192423 -0.09390048 0.044248555 -0.038984206
0.05129738 0.035295866 0.09008772 -0.05981739 0.12820537 0.15434586 -0.16627528 0.036922466
0.22836135 -0.0043380046 0.14177743 -0.024669979 -0.35293213 0.16151623 0.13621616 0.2532133
-0.06723112 -0.25683773 0.24222605 0.08477116 -0.1823585 -0.0119037265 0.15506038 0.08385656
-0.23711242 -0.16468199 -0.033772007 0.033300746 -0.14631939 0.14032023 0.09516295 0.01631431
-0.0020477031 0.1861895 0.1706197 -0.13397452 -0.20272112 0.05116575 0.16356815 0.026350783
-0.10711062 -0.38395044 0.07411614 -0.22698411 0.009280737 -0.1683598 0.046360154 0.1524963
-0.06454461 -0.079058856 0.03881791 -0.0673337 -0.17677096 0.07144359 0.03749723 0.08241116
-0.09494197 -0.113404125 -0.018375054 0.2710905 -0.13479704 0.17604442 0.1020416 -0.22434868
-0.16016449 0.0144849885 0.092502385 0.12055705 -0.018357323 0.17721447 -0.29112577 -0.17441729
-0.16340202 -0.03480018 0.011180181 -0.071333125 0.022081928 0.06980151 -0.1761544 0.16600518
0.027667103 -0.2385576 0.36918688 -0.29156432 -0.055794224 -0.14218831 -0.32214615 0.24068126
0.15736169 -0.23324195 0.07564295 0.20796376 0.3787848 -0.0574125 0.2566926 -0.12053641
-0.20054492 0.2517245 0.24479562 -0.11038907 0.030976513 0.045387812 -0.17362292 0.33873916
0.026455937 0.23510681 -0.21300825 0.03535703 0.011095048 -0.2827081 0.1600022 0.03094135
0.17110534 -0.28412482 0.059037205 -0.007316399 -0.1380558 0.036981836 0.100483164 -0.44683608
-0.040446855 -0.058875997 0.034684464 -0.15309714 0.036201894 -0.24570912 -0.042649526 -0.07367224
0.2925287 0.015333104 -0.09777234 0.038006824 0.1206658 0.20513488 0.22257526 -0.18543561
-0.08551137 -0.14416824 0.09180874 0.08557367 0.16615885 0.04787676 -0.14882973 0.04024636
0.018492194 0.0032287026 0.19070782 0.23065929 0.002046143 -0.044727974 0.36235285 0.21091406
-0.058306754 -0.11913086 -0.029995378 0.111419834 -0.2127204 0.03594625 -0.14977251 0.0051617734
0.0841484 0.2997236 0.12111167 0.2374463 0.14001848 0.0865897 -0.14744432 -0.029563624
0.19178976 0.20538825 -0.09975378 -0.31565243 0.02697737 -0.24244203 -0.1833176 -0.06942232
0.013283925 0.1850927 -0.12722361 -0.42137668 0.049311608 -0.25255936 -0.0027734507 0.27406144
0.026521325 -0.17816517 0.17158362 -0.060541067 0.09847065 -0.19722572 -0.078897394 -0.13278915

classifier.0.bias f4 [84]
00000000: a379 18be f790 8abc b32d 053c 7a79 123e
00000010: cded b0bd 3ce7 02be 9279 1a3e e489 c6bb
00000020: 1f96 ef3c 8019 b13b 5a7b a2bd 41fb cabd
00000030: c8aa cdbd a333 613e a9df f7bd 5a29 243d
00000040: b716 ae3d 4a21 293e 6a40 4e3e dab9 03bd
00000050: cb0b 62bd fbf5 38bd 4ec2 c93c d9f6 d63d
00000060: f51a af3d 5401 babd faa7 98bc 265c 503e
00000070: 39c9 ac3c 47df f33c 5169 843d a644 103c
00000080: ce4a 2a3d 9b83 02be 9133 83bd e3f3 c5bc
00000090: ce2f 18bd ee03 933d 9b18 8ebd 0c58 173d
000000a0: d1fc 25bd 3bbf 97bc fefd 2d3d a93e d8bd
000000b0: a618 19be 6e00 f63d da95 dabd 9fd4 2cbe
000000c0: 34fa 923d f325 e13c 08aa 1bbe 0ff8 02be
000000d0: 17c4 313d 9354 8a3d 64db a73d 626b cb3c
000000e0: f807 eabc d54d 9d3d 875d 5c3d 5d71 d23d
000000f0: 64e1 03bd 3a5a 003d ee00 823d 8d8f 643d
00000100: fe1f 03bd 11a3 063b 107e c03c 9865 b6bd
00000110: 9a0b b5bd 743c 1ebd d0f0 ff3d c3d9 313e
00000120: 9304 d73d 8b1e efbd 7d0c d7bd f07f 32bd
00000130: 23a2 2abc ed9f efbd cf84 163e 8475 08be
00000140: f252 863d c48e 653e 4591 b6bd 918f 2f3d
-0.1489015 -0.016914828 0.008128571 0.14304152 -0.08639107 -0.12783521 0.15085438 -0.0060589183
0.029246388 0.005404651 -0.07933684 -0.09911204 -0.100423396 0.21992354 -0.12103207 0.0400785
0.08500426 0.16516605 0.2014176 -0.032159664 -0.055187028 -0.04515646 0.024628785 0.10496301
0.085500635 -0.090822846 -0.018634785 0.20347652 0.021092044 0.029769553 0.064654 0.00880543
0.041575246 -0.12745516 -0.0640632 -0.024164146 -0.037154965 0.07178484 -0.06938287 0.036949202
-0.040524308 -0.018523803 0.042478554 -0.105588265 -0.14950809 0.12011801 -0.10673113 -0.16877984
0.07176629 0.027483916 -0.1520158 -0.1278994 0.043399896 0.067544125 0.08196142 0.024831478
-0.028568253 0.07680861 0.053800132 0.102755286 -0.03219737 0.031336047 0.063478336 0.055800963
-0.032012932 0.0020543972 0.023497611 -0.08906096 -0.088401034 -0.03863187 0.12497103 0.17368226
0.10498919 -0.116757475 -0.10500429 -0.043579042 -0.010414633 -0.11700425 0.146991 -0.13326079
0.06558789 0.22417742 -0.08914427 0.042861525

classifier.2.weight f4 [10, 84]
00000000: dea1 d23d 3e92 69bd 1dfb 14be dd32 8a3e
00000010: 6c45 26be 0698 8c3a 7d05 ce3e 0952 843e
00000020: c5ee d13e 09ee f33d 90a3 473d 8ff2 d5be
00000030: 8d7a 0b3f 5faf 703c 3f26 923e 727e 8ebd
00000040: 470e 6f3e fc8b 18be af6c 49be 4516 f4bd
00000050: 6ff6 f93e 1897 07bf 1a65 e6be ab9e 11be
00000060: 06e8 8dbe e24a 74be 81a6 2cbf 9229 cfbe
00000070: 97b6 d6be 08ed 213f 2477 1a3d 5cab 0c3f
00000080: cde9 903e 9aab 91be 82c4 7dbd 8eb0 63bd
00000090: 00c5 993e 611f 273e 1f8a c73e e587 123f
000000a0: acea 1f3f 979a 33be 632a 76be a8fb 4b3d
000000b0: b47f ccbe 23dd 1f3e b6fa f03e 7380 fbbd
000000c0: 202d 1f3f 5f04 863e d885 993e 252f bbbd
000000d0: c18d af3e c6f8 863e 2663 b83e 451a 44bf
000000e0: 091f cfba 5c48 3bbf 5e6a f0be 84e9 12be
000000f0: 76af d43d 0ad8 dbbd b50c 973d 2b68 e8be
00000100: acfc cebd 0210 923d b6fe 473e ad56 0a3e
00000110: f2ce febd d446 c63e bc78 62be c631 e83e
00000120: b0f6 af3e 670b 983d f3bd e73e 7b31 2fbc
00000130: 6d50 863d 884d 253f 7a6b 093d 8136 fabe
00000140: f641 c33e c9b3 5dbe b774 3b3f 61c5 24be
00000150: ef4f 9cbd d871 f83e a454 af3e 029f 093e
00000160: 807b 62be de99 c7be 3496 7abe b47b 9f3e
00000170: 9e4d 8f3d 0c3e 75be 3500 c43e 1466 51be
00000180: eeb6 59be d9fc 8ebe 1328 5dbb 861d bc3e
00000190: 565d 9dbe 96ae 963e 1a1d de3e d157 0cbf
000001a0: fcf8 9dbe cc3e f53d 51b5 95be 19a2 953e
000001b0: 5c79 903e d621 fb3d 6803 893e 0a5f 9c3e
000001c0: 1e0c c83d 722c eebd 5c72 f1be 6aa3 9f3e
000001d0: 8f93 043e 255c 9b3e e8da e93e b774 0bbf
000001e0: 7d47 82be 4a3f e33e 1ba3 b4be 9e9d 103f
000001f0: f6b8 b4bd 0e1f aa3e cdc7 e83e 3be2 793e
00000200: 15dd 80be eeaa c7bd 4881 b6bd 3fa3 fa3d
00000210: 0829 b0be 8ccd 87be 78a1 03be 831a 5b3e
00000220: ea1f cdbe 378b 813d 1530 7c3e 42ba cf3d
00000230: f50c b53e 0f5f 8b3e fec3 863e 692d ad3e
00000240: 444d 9d3e 889b 8fbd d37f 5dbe 4e56 7b3e
00000250: 7d1e 133f 0180 5ebe 6a4a 8dbe 8357 cfbe
00000260: 2d66 bfbe a106 80bd f637 e03d 2c27 5ebd
00000270: fcf9 83bd b82d b93c ef35 a2be f416 c83e
00000280: cae3 c1be 8e67 d6bd 0c6f ba3e 0900 89be
00000290: 99f7 0e3f cdde e93e 1ff3 1bbe f787 f23e
000002a0: ad08 dcbe 6144 95be cc14 3a3e d8e1 363e
000002b0: a88e 9b3e 163b cc3e 3f58 cd3e 3714 95be
000002c0: c47f 24be fc08 2d3e 140c ccbe ec19 94be
000002d0: 867a 933e b337 e53e c6b8 c6be 9592 9c3e
000002e0: 55ae bfbd e609 e73e b97a 173f 55ab c73d
000002f0: a9bc e13e 18ff debe edef f53d 8497 bc3e
00000300: 08fe bf3d 4a77 b8be 1fd1 10bf 8eba c93e
00000310: 3716 9c3e e820 d1be 27bc e9bd df72 403f
00000320: b588 27bd b7ba 23bc 7e97 c7be 53ea 273e
00000330: bb30 0ebe 4a92 e9be d818 cd3e 3a27 69be
00000340: 5f9a f83c d661 5cbe 77c0 3bbd a1cb e9be
00000350: 7693 af3e 70a0 ca3e e979 6b3e 6fd7 66be
00000360: 1342 c53e 1d07 0b3e 0a8f 60bd 72de 51be
00000370: 1126 883e 9ae9 45be 9b09 833e d16b 12bf
00000380: 8f27 bcbe d579 dbbe beaa 943e b201 073e
00000390: 2485 eabd c7b1 1e3e 2316 cc3d 439d f73e
000003a0: ab02 99bd ed08 d73d 82d6 b6be 2e1e bbbe
000003b0: 57f3 9fbe 380a b9be a3c3 843e 8c02 013f
000003c0: ef55 263f 58c3 e5be dfba bebe 8b18 95be
000003d0: d296 a9be fff7 93be eac9 17be 000b c2be
000003e0: ee3b 95be deda a13e 22a1 94be ce53 df3e
000003f0: ff07 f93e 1c59 41be 6596 11bd e8de 5d3e
0.1028478 -0.057024233 -0.14548917 0.2699193 -0.1623742 0.0010726459 0.40238562 0.25843838
0.4100248 0.11910636 0.04873997 -0.4178662 0.5448387 0.014690249 0.28544804 -0.06957711
0.2334529 -0.1489715 -0.19670366 -0.1191831 0.48820826 -0.52964926 -0.4499901 -0.14220683
-0.27716082 -0.2385669 -0.67441565 -0.40461403 -0.4193618 0.63252306 0.037711278 0.54948974
0.28303376 -0.28451234 -0.061954983 -0.055588298 0.30033112 0.16320564 0.38972566 0.5723861
0.62467456 -0.1753944 -0.24039607 0.049800545 -0.3994118 0.156117 0.47066277 -0.12280359
0.6217823 0.2617521 0.29984927 -0.091398515 0.34287837 0.26361674 0.36013144 -0.76602584
-0.0015802096 -0.73157287 -0.46956152 -0.14346892 0.10385029 -0.107345656 0.073754705 -0.45391974
-0.10106787 0.071319595 0.19530758 0.13509627 -0.124418154 0.38725913 -0.22116369 0.45350474
0.34367895 0.0742405 0.45262107 -0.010692949 0.06558309 0.6457143 0.033549763 -0.48869708
0.38136262 -0.21650614 0.7322497 -0.16090919 -0.076324336 0.48524356 0.34244263 0.13439563
-0.22117424 -0.3898458 -0.2447136 0.31149065 0.06997226 -0.2394945 0.38281408 -0.20449096
-0.21261188 -0.27927282 -0.003374581 0.36741275 -0.30735272 0.29430073 0.43381578 -0.548215
-0.30854023 0.11974868 -0.29239896 0.29225233 0.2821759 0.12262313 0.2676041 0.3054126
0.09767936 -0.11629571 -0.47157562 0.31179363 0.12946914 0.30343738 0.45674825 -0.5447497
-0.25445166 0.44384223 -0.3528069 0.56490505 -0.08824341 0.33226818 0.45464936 0.24402706
-0.25168672 -0.09749399 -0.08911377 0.12238168 -0.34406304 -0.26524007 -0.12854564 0.21396832
-0.4006341 0.06325381 0.24627717 0.10142948 0.35361448 0.2722096 0.26321405 0.33823708
0.30723011 -0.07012087 -0.21630792 0.24544641 0.57468396 -0.21728517 -0.27595836 -0.40496454
-0.3738264 -0.06251264 0.10948174 -0.054236576 -0.06444165 0.022604808 -0.31681773 0.39080012
-0.37869102 -0.1046897 0.36412847 -0.2675784 0.55846554 0.45677796 -0.15229462 0.47369358
-0.4297537 -0.2915373 0.18171996 0.1785959 0.30382276 0.3988883 0.4010639 -0.29116985
-0.16064364 0.16897959 -0.39852965 -0.28926027 0.28804415 0.44769058 -0.38812846 0.30580583
-0.09359423 0.4512474 0.59171635 0.09749476 0.4408925 -0.43553996 0.12008653 0.36834347
0.093746245 -0.3602851 -0.56569093 0.39400142 0.304857 -0.40845418 -0.1141284 0.7517528
-0.04090186 -0.009993247 -0.38982767 0.16397981 -0.13885777 -0.45619422 0.40058017 -0.2276887
0.030347047 -0.21521696 -0.045837846 -0.4566317 0.3429219 0.3957553 0.22995724 -0.22543119
0.38526973 0.13576932 -0.054823913 -0.20495012 0.26591542 -0.19327393 0.25593266 -0.57195765
-0.3674893 -0.42866388 0.29036516 0.1318424 -0.11451176 0.15497504 0.0996516 0.4836217
-0.07471212 0.10499749 -0.3571053 -0.36546463 -0.3124034 -0.3614061 0.2593051 0.5039451
0.64974874 -0.44875598 -0.37251946 -0.29120287 -0.3312288 -0.28900144 -0.14823118 -0.37899017
-0.29147285 0.31612295 -0.29029185 0.43618625 0.48638913 -0.18881649 -0.035543818 0.21667063

classifier.2.bias f4 [10]
00000000: 94e8 25bd 7cf2 c93d 4e44 903d 51c6 04be
00000010: 37ea febb a69c 4fbb f065 e2bb 9cd5 53bc
00000020: 2e15 873b 7c18 843d
-0.040505007 0.09860703 0.07044278 -0.12966277 -0.0077793854 -0.0031679063 -0.0069091246 -0.012929346
0.004122398 0.064499825
